fdsc_utils/free_dog_sdk_py/free-dog-sdk/model/policy_go1.pt (torch, 992046 bytes, 14 tensors)

weight f4 [512, 64]
-0.004402639 0.064156234 -0.0064070863 -0.38173458 0.20338535 -0.06649427 0.25657302 0.39079404
0.11259381 -0.38253716 0.22101046 0.26829457 -0.39465046 -0.14317967 -0.23028551 0.4467492
-0.29908937 0.11419818 -0.23329428 -0.07325142 -0.09651035 -0.27133638 -0.06205465 -0.048224613
-0.17680214 0.20904349 0.01967971 -0.21844481 0.057459164 0.14267138 -0.23155642 0.015898287
0.0460982 -0.072692886 0.019586071 0.07239668 -0.020700425 -0.030799266 -0.0036135246 0.026699277
0.025891587 -0.07171775 -0.039940678 0.038719777 -0.047780573 0.00024291356 0.005698365 0.28695774
-0.15871303 -0.14664662 -0.022677397 -0.07718922 0.071994565 0.014249136 -0.019392008 -0.0037265862
0.07070209 0.14875929 -0.054610573 0.040897787 0.012671139 0.015542519 -0.06648942 0.021179352
-0.022923166 -0.0052111405 0.018975107 -0.16486454 -0.11153431 -0.13573715 -0.36253712 -0.12266379
0.17345132 -0.2332377 0.2032123 -0.117865555 0.10262473 -0.825199 -0.44424862 0.02071937
-0.076547265 0.12738298 0.41356063 -0.12403945 0.056958176 -0.071748875 0.020031448 0.052418128
-0.1880014 0.15184194 0.23152803 -0.032834083 -0.040108096 -0.12481162 -0.11547017 -0.17453925
0.07614129 0.030621007 -0.10417176 -0.12294593 0.098532595 -0.15250063 0.05712206 -0.00831843
-0.12691772 0.047256853 -0.011714968 -0.007070589 -0.027650323 -0.29661274 0.100652225 0.25541177
0.025473896 -0.03194602 -0.055090405 -0.10496345 0.041458208 -0.035092406 -0.021848688 0.025912462
0.11595776 -0.046514705 0.10126824 0.07930217 0.09884594 0.14153007 -0.054317445 0.12750356
0.3436153 -0.07257903 0.020181093 0.1630427 0.095751666 -0.15518758 -0.16822925 0.32696202
-0.013935183 -0.1645028 0.37008834 0.12959155 0.41230765 0.093990155 -0.048274193 -0.16694826
0.39555055 -0.02448151 0.09534529 -0.6342512 -0.057493225 0.0066227675 -0.076438196 -0.10255455
-0.020983066 -0.059088062 -0.0012892457 0.10463988 -0.112076186 -0.09366206 0.10244066 0.25939655
0.016398888 -0.0010811399 -0.011353976 -0.10038067 0.09859551 -0.03778865 0.02614115 0.02586652
-0.057763137 0.054554228 -0.07995641 -0.0030025116 -0.1049728 -0.27983907 -0.009479991 0.043156628
0.026732005 0.00015305175 0.044648368 -0.04741635 -0.1381973 -0.1167701 -0.079768516 -0.028722629
0.0029512527 -0.010025865 -0.017615054 -0.0034421082 -0.022322569 -0.02940471 -0.13850847 0.012266492
0.043653615 0.00018652265 0.46307713 0.038343597 0.06505731 -0.34940714 0.061057076 -0.4219262
0.07335468 0.092815265 -0.39510903 0.22351927 -0.029289966 0.034489576 -0.21509384 0.205095
-0.09576397 0.23517329 0.79409766 0.4024477 0.1261209 -0.0019087075 -0.1612124 0.12175003
-0.08886168 0.23113449 0.12096707 -0.119008586 0.078603156 0.028191466 0.15822989 -0.086547665
-0.14968202 0.057889096 0.031564575 0.051148456 0.07566197 -0.02813158 -0.010819745 0.07485397
0.02078235 -0.039174933 0.030341892 -0.05756191 0.07979856 -0.0690359 0.01129764 0.14243221
0.009609889 0.031044235 0.061854713 0.13131161 -0.06178794 0.08620927 -0.037284452 0.09444726
-0.042458504 0.07230998 0.029419215 0.0011137376 0.031370714 0.058808863 0.14633998 0.008147879
00000000: 0344 90bb 5864 833d 89f2 d1bb b772 c3be
00000010: 4044 503e 262e 88bd 8a5d 833e 2816 c83e
00000020: 9597 e63d e9db c3be 9150 623e e85d 893e
00000030: a00f cabe b19d 12be f7cf 6bbe 50bc e43e
00000040: 3e22 99be bce0 e93d b2e4 6ebe d704 96bd
00000050: 38a7 c5bd 9aec 8abe 042d 7ebd 2c87 45bd
00000060: 9f0b 35be 7f0f 563e 5837 a13c ffaf 5fbe
00000070: 4d5a 6b3d 7218 123e 201d 6dbe 203d 823c
00000080: 77d1 3c3d 02e0 94bd f872 a03c b644 943d
00000090: f093 a9bc be4e fcbc e2d0 6cbb 71b8 da3c
000000a0: 981a d43c c1e0 92bd d698 23bd a198 1e3d
000000b0: 90b5 43bd 9db6 7e39 5ab9 ba3b 20ec 923e
000000c0: ab85 22be 882a 16be f3c5 b9bc 6215 9ebd
000000d0: e371 933d 3575 693c fddb 9ebc be39 74bb
000000e0: 42cc 903d 5b54 183e 56af 5fbd 7084 273d
000000f0: 9c9a 4f3c 0da6 7e3c 9b2b 88bd 5280 ad3c
00000100: 5dc9 bbbc 37c2 aabb af71 9b3c 40d2 28be
00000110: 1a6c e4bd aefe 0abe 779e b9be 2737 fbbd
00000120: 399d 313e ddd5 6ebe e316 503e 7f63 f1bd
00000130: ea2c d23d 3e40 53bf 8e74 e3be abbb a93c
00000140: d0c4 9cbd af70 023e 38be d33e 6508 febd
00000150: fa4c 693d 13f1 92bd fe18 a43c 64b4 563d
00000160: 7083 40be 747c 1b3e af15 6d3e 087d 06bd
00000170: 6348 24bd 3c9d ffbd a07b ecbd 6bba 32be
00000180: f7ef 9b3d e8d8 fa3c 0158 d5bd 13cb fbbd
00000190: 75cb c93d 2029 1cbe d2f8 693d 064a 08bc
000001a0: b8f6 01be 6790 413d 23f0 3fbc 66b0 e7bb
000001b0: ee82 e2bc a0dd 97be c122 ce3d 55c5 823e
000001c0: a2ae d03c d4d9 02bd 7aa6 61bd 14f7 d6bd
000001d0: 15d0 293d 0ebd 0fbd 05fc b2bc 5f46 d43c
000001e0: 437b ed3d 3486 3ebd b965 cf3d 2d69 a23d
000001f0: bd6f ca3d 42ed 103e f87b 5ebd 4b90 023e
00000200: 58ee af3e 51a4 94bd d252 a53c aaf4 263e
00000210: 7319 c43d 7ee9 1ebe 4a44 2cbe 9167 a73e
00000220: 6550 64bc 6c73 28be 387c bd3e a6b3 043e
00000230: fd19 d33e e97d c03d 29bb 45bd 7cf4 2abe
00000240: 9a85 ca3e 738d c8bc 6444 c33d 495e 22bf
00000250: 047e 6bbd cd03 d93b a18b 9cbd 1f08 d2bd
00000260: aee4 abbc 5306 72bd e8fb a8ba 6f4d d63d
00000270: 3388 e5bd e5d1 bfbd 69cc d13d a0cf 843e
00000280: f656 863c 09b5 8dba 0706 3abc 6194 cdbd
00000290: 71ec c93d 45c8 1abd f725 d63c 06e6 d33c
000002a0: 0a99 6cbd 4174 5f3d 30c0 a3bd c9c5 44bb
000002b0: fbfb d6bd 1147 8fbe f751 1bbc 01c5 303d
000002c0: 14fd da3c 847c 2039 35e1 363d a637 42bd
000002d0: 9883 0dbe 2a25 efbd ad5d a3bd b84b ebbc
000002e0: ce69 413b 8743 24bc 724d 90bc fe94 61bb
000002f0: d2dd b6bc 25e2 f0bc 2ad5 0dbe 65f9 483c
00000300: 22ce 323d 4b95 4339 7218 ed3e 2d0e 1d3d
00000310: c43c 853d 7ee5 b2be fc16 7a3d b606 d8be
00000320: fa3a 963d ee15 be3d bb4b cabe 3ce2 643e
00000330: 83f1 efbc f144 0d3d 8f41 5cbe 6c04 523e
00000340: e61f c4bd 44d1 703e fc49 4b3f a00d ce3e
00000350: d625 013e 992d faba dd14 25be 1458 f93d
00000360: 1dfd b5bd 85ae 6c3e 95bd f73d c6ba f3bd
00000370: b1fa a03d caf1 e63c 0407 223e e73f b1bd
00000380: 3e46 19be 1e1d 6d3d db49 013d 0b81 513d
00000390: aaf4 9a3d 3374 e6bc 4d45 31bc 0a4d 993d
000003a0: bf3f aa3c e575 20bd 8f8f f83c 0ac6 6bbd
000003b0: 6d6d a33d b262 8dbd bd19 393c c0d9 113e
000003c0: cc72 1d3c 7b50 fe3c 5e5b 7d3d 8d76 063e
000003d0: 5a15 7dbd 7c8e b03d 95b7 18bd 916d c13d
000003e0: f8e8 2dbd 4117 943d 9100 f13c d5fa 913a
000003f0: 947e 003d 90e1 703d 26da 153e ae7e 053c

bias f4 [512]
-0.030070987 -0.10637222 -0.23947875 0.029748347 -0.008553389 -0.19400975 -0.046219163 -0.08993882
-0.024176152 -0.083961606 0.17683928 0.038707502 -0.16849945 -0.20552033 -0.1880546 0.01790178
-0.20448633 -0.12267391 -0.060757082 -0.049739134 -0.09468886 0.04273944 0.11386631 0.15568559
0.048349336 -0.06456525 0.0023637468 -0.022149587 0.045902736 -0.031116443 0.039242733 -0.024935078
0.070218414 -0.15964963 0.004455187 0.23174858 0.15172787 0.09771148 0.019102475 -0.1412051
-0.12866499 -0.0090637095 -0.07865397 -0.14643228 0.08462516 0.20546906 -0.14007394 -0.1686158
-0.11743762 -0.2161243 -0.021266637 -0.0958829 0.02404194 0.017484682 0.103738956 -0.020368528
-0.2111955 0.123236574 -0.11447019 0.034703467 0.096274555 -0.09037926 0.09369855 -0.1151488
-0.008032174 0.046614587 -0.008901808 0.07625697 -0.11763688 0.15747373 0.16053644 0.034790535
0.124305055 0.026935052 0.017772758 -0.12921399 -0.014855935 0.0008523443 -0.05266671 -0.020983385
0.046828825 -0.23214959 0.033225093 0.09078846 -0.15020692 0.15214035 0.06742377 0.0002497474
-0.09136803 -0.057749413 -0.2253526 -0.10680439 0.06659132 -0.26788253 -0.06429285 0.086693965
0.0060751745 0.08456024 0.0018674221 0.076001294 0.08480417 -0.04941313 -0.06122197 -0.022738101
0.07027289 0.03787914 -0.056996506 0.0937605 0.31253284 -0.085565485 0.0030973763 0.06301865
-0.027468793 0.12524174 -0.133011 0.012961251 -0.1408857 -0.0020283023 -0.02096273 0.14009129
-0.095588855 0.063784786 0.013930583 -0.030125601 -0.16222501 0.15409043 -0.014291803 0.07814992
-0.1253328 0.0014118158 0.103721775 -0.07499983 -0.035117846 0.13379453 0.26859108 0.14330116
-0.037849016 0.054373465 -0.18599808 -0.0023531166 0.051113144 0.10832643 -0.13261946 0.03772565
-0.069546364 0.034231976 -0.2529005 -0.22945789 -0.0001827159 0.020719262 0.11910054 -0.066391796
-0.017003348 0.037431292 0.0128670195 0.2527676 -0.22938688 -0.14832869 -0.23955248 0.24139509
0.17386389 0.10085511 -0.054970462 0.03587683 -0.040520523 -0.06293502 -0.06046531 0.12920818
0.08627339 -0.009020924 -0.0074164425 0.055588607 0.016818153 -0.1084367 -0.065273315 0.11965969
-0.09661063 -0.13333331 0.019418938 0.15251239 0.06560397 -0.033070534 0.066844195 0.12770155
-0.12902093 0.19735865 -0.052150097 -0.16730419 0.068916 0.01996229 -0.240012 -0.029478863
-0.0063215015 0.026644466 -0.14436631 0.055425312 -0.19438197 0.07095997 -0.16523027 -0.028260441
-0.035046704 -0.13654564 -0.23326787 -0.17026718 0.060681872 0.023555426 -0.24158795 0.04013545
0.03413848 0.07971171 -0.22218232 -0.07282193 -0.19436973 -0.07408168 0.050647136 0.02911476
-0.04602729 0.072597116 -0.116344035 -0.009373949 0.038187638 0.027595552 -0.03300422 -0.14911664
-0.05868197 -0.066736706 0.1450014 -0.046824187 -0.17184791 0.023876717 0.032467928 0.15772857
0.028645717 0.015609682 -0.14660779 0.012140274 -0.028355718 -0.10341271 0.15325195 0.038088612
-0.017977158 -0.070518434 0.013392739 -0.14474885 -0.03247484 -0.023288317 0.040924173 -0.09692296
0.038138844 -0.10723672 0.16610783 -0.13214287 0.04245617 -0.21012928 0.120863855 -0.078543164
00000000: 6e57 f6bc aed9 d9bd eb39 75be ceb2 f33c
00000010: 8423 0cbc 7eaa 46be 4e50 3dbd d831 b8bd
00000020: 110d c6bc 10f4 abbd 5b15 353e c28b 1e3d
00000030: 1f8b 2cbe ec73 52be 6391 40be c1a6 923c
00000040: dd64 51be 753c fbbd 6bdc 78bd 43bb 4bbd
00000050: 3cec c1bd 8d0f 2f3d bd32 e93d 0b6c 1f3e
00000060: f409 463d c93a 84bd 17e9 1a3b 0d73 b5bc
00000070: 8204 3c3d e9e7 febc fdbc 203d a644 ccbc
00000080: acce 8f3d 317b 23be d1fc 913b 804f 6d3e
00000090: 8d5e 1b3e f51c c83d cb7c 9c3c 1298 10be
000000a0: c1c0 03be f47f 14bc 5515 a1bd 58f2 15be
000000b0: f54f ad3d 7b66 523e 8b6f 0fbe 9fa9 2cbe
000000c0: 2383 f0bd b04f 5dbe 5f37 aebc 415e c4bd
000000d0: 9af3 c43c 093c 8f3c 1775 d43d e6db a6bc
000000e0: a243 58be 7563 fc3d 596f eabd 3925 0e3d
000000f0: 982b c53d c318 b9bd 06e5 bf3d 22d3 ebbd
00000100: 6199 03bc f0ee 3e3d e4d8 11bc 9d2c 9c3d
00000110: 9beb f0bd cb40 213e aa63 243e 8580 0e3d
00000120: a693 fe3d e6a6 dc3c 2d98 913c ac50 04be
00000130: 4f66 73bc dc6f 5f3a 0cb9 57bd 59e5 abbc
00000140: 95cf 3f3d 9fb8 6dbe 0917 083d 4def b93d
00000150: d8cf 19be aeca 1b3e 7915 8a3d 87f0 8239
00000160: 291f bbbd a68a 6cbd d5c2 66be 43bc dabd
00000170: 0861 883d e627 89be f8ab 83bd 9b8c b13d
00000180: 4212 c73b eb2d ad3d 4ac4 f43a 91a6 9b3d
00000190: cfad ad3d 6c65 4abd e3c3 7abd 4145 babc
000001a0: 3ceb 8f3d 2827 1b3d 2b75 69bd 8105 c03d
000001b0: 4e04 a03e f53c afbd 5afd 4a3b ec0f 813d
000001c0: 3c06 e1bc 5f3f 003e 0934 08be 6d5b 543c
000001d0: 5744 10be 44ed 04bb 08ba abbc 1774 0f3e
000001e0: 17c4 c3bd 99a1 823d 1a3d 643c f7c9 f6bc
000001f0: 501e 26be e2c9 1d3e 2b28 6abc 110d a03d
00000200: 3e57 00be ad0c b93a 156c d43d 8399 99bd
00000210: bbd7 0fbd 6f01 093e c584 893e 8abd 123e
00000220: 9207 1bbd b6b6 5e3d 4876 3ebe bf36 1abb
00000230: 045c 513d 3fda dd3d 65cd 07be 3686 1a3d
00000240: 536e 8ebd d436 0c3d 2d7c 81be 02f7 6abe
00000250: 6d97 3fb9 71bb a93c fcea f33d 6cf8 87bd
00000260: 9b4a 8bbc 8e51 193d 31d0 523c c16a 813e
00000270: 65e4 6abe 7ae3 17be 3f4d 75be 4630 773e
00000280: 6009 323e 208d ce3d b528 61bd 95f3 123d
00000290: d9f8 25bd 13e4 80bd 79aa 77bd 264f 043e
000002a0: 1ab0 b03d 7fcc 13bc a105 f3bb e1b0 633d
000002b0: 39c6 893c 1014 debd 04ae 85bd 2410 f53d
000002c0: cbdb c5bd 8788 08be 7714 9f3c 352c 1c3e
000002d0: 605b 863d f874 07bd 9ce5 883d 32c4 023e
000002e0: 101e 04be 6318 4a3e 579b 55bd ca51 2bbe
000002f0: d523 8d3d f587 a33c b5c5 75be a87d f1bc
00000300: 9924 cfbb 7f45 da3c c3d4 13be a705 633d
00000310: 110c 47be 7653 913d 2032 29be 7182 e7bc
00000320: 228d 0fbd 9fd2 0bbe c6dd 6ebe 855a 2ebe
00000330: 8e8d 783d 4ff7 c03c d562 77be 1265 243d
00000340: cad4 0b3d e53f a33d c383 63be aa23 95bd
00000350: dc08 47be 23b8 97bd 5f73 4f3d 1482 ee3c
00000360: 1d87 3cbd ccad 943d c845 eebd 3195 19bc
00000370: a46a 1c3d 1110 e23c 6f2f 07bd 08b2 18be
00000380: 815c 70bd 41ad 88bd 3f7b 143e b8ca 3fbd
00000390: e6f8 2fbe 1b99 c33c 17fd 043d 9983 213e
000003a0: 6caa ea3c c0bf 7f3c 5a20 16be 00e8 463c
000003b0: 404a e8bc 0bca d3bd 14ee 1c3e ce02 1c3d
000003c0: d544 93bc f86b 90bd 386d 5b3c 0b39 14be
000003d0: 5604 05bd 24c7 bebc 1ba0 273d 8b7f c6bd
000003e0: 7a37 1c3d ed9e dbbd 2c18 2a3e 7650 07be
000003f0: 85e6 2d3d 212c 57be 7887 f73d 3ddb a0bd

weight f4 [256, 512]
-0.03704409 0.02361853 0.13553807 0.114905834 -0.0531739 0.05961159 0.056074116 -0.0087076165
-0.00043358037 0.04807078 0.073307596 -0.054942667 0.10784418 0.005124705 -0.12974037 -0.1301585
-0.027669124 0.036380358 0.038667545 0.17263144 -0.14911412 0.00066450884 -0.09956683 -0.037624143
0.05613809 -0.0034223348 -0.059904076 -0.053680573 -0.068601415 -0.041587576 0.11234866 0.12520392
-0.021485217 -0.0013617128 -0.018935176 0.113506086 -0.085390836 -0.030249955 0.13195354 0.07074212
0.008941265 0.00313603 -0.2047468 0.0066599334 -0.013593021 0.074172996 0.03119109 0.12259437
-0.0020683631 -0.11043798 -0.045722444 0.16888475 0.05287985 -0.0077756667 -0.15973534 -0.032170687
0.08702211 0.07062644 -0.012180761 0.027266987 0.0008354793 0.022675741 -0.008194647 -0.03270647
-0.10539101 -0.14247526 0.074732974 0.0295475 0.08571063 -0.12050747 -0.11746078 -0.010603071
0.0213934 0.14072978 -0.08061381 0.10061237 0.059274625 -0.08051058 -0.09665336 0.0010917444
-0.026940405 0.12134043 -0.048035074 0.056716505 0.035948377 -0.07107159 -0.02142639 0.035075225
0.1307409 0.07809939 0.14082302 0.08979246 -0.049210533 0.020498373 -0.044539627 -0.1225293
0.014348318 0.019322323 0.03750622 0.07664496 -0.041056354 0.05181261 0.008512423 -0.1472358
-0.09589373 0.023936316 0.018411648 -0.08771014 0.034576215 -0.2078212 -0.14600343 -0.09878196
-0.042159364 -0.11581581 0.0033067514 0.024381997 -0.020066319 -0.0049755224 -0.05703651 -0.096066065
0.008699264 0.05643582 0.12437896 -0.022311164 -0.07974724 0.2149076 0.030355817 0.0088100815
-0.12914376 0.0035781648 -0.054450676 -0.029165436 -0.015087849 -0.05525783 0.067375235 -0.04741728
-0.08311945 -0.06554912 -0.07067049 0.07448735 -0.14643832 -0.10152811 -0.087605886 -0.15224731
0.046815444 -0.13481763 0.0388352 0.18986598 -0.06069512 0.036804635 -0.14434695 0.09236514
0.093062736 -0.033275105 0.12989886 -0.01851777 0.05275336 0.064076655 0.066775516 -0.05630067
-0.0433704 -0.040138315 0.15846196 0.11667549 0.12088445 -0.07950826 -0.1711237 -0.23173279
0.06368419 0.099872515 -0.014815622 -0.019142464 -0.12608603 -0.029047804 0.003313335 -0.022773566
-0.23401643 0.09122787 -0.060667783 0.06812386 -0.0012604891 -0.07088174 -0.12528582 0.027180813
0.21090627 -0.1550375 -0.113045275 0.13881165 -0.19533591 0.33665544 0.10978237 0.20450734
-0.014973643 0.07710182 0.024312118 0.119251445 0.04679314 0.045272943 0.17046453 -0.15550476
0.023697581 0.19786502 -0.018513078 0.20281933 0.0874014 0.05799472 -0.039924048 -0.0769296
0.15499665 -0.089438915 0.013247989 -0.13121414 -0.19475676 0.0072649485 -0.010764978 -0.02952016
0.104597025 0.057584178 0.03636358 -0.058480654 -0.003568742 -0.12035327 -0.42871845 0.18020946
-0.065767996 -0.10505041 0.15709803 0.069329634 -0.12105768 0.11922022 0.074201405 0.021679023
-0.10293411 0.02320284 -0.10667884 -0.20411503 0.06004988 0.001504652 0.018417139 0.047770966
-0.068033755 0.052247737 -0.06172891 -0.019769821 -0.124615 -0.04406994 -0.006015838 0.09576928
0.16433963 0.03217361 -0.10070369 0.024886025 0.024867846 0.058252774 -0.13715316 0.044828355
00000000: 8bbb 17bd a67b c13c 7eca 0a3e c053 eb3d
00000010: e0cc 59bd 482b 743d f9ad 653d 64aa 0ebc
00000020: 2c52 e3b9 dee5 443d 4b22 963d 900b 61bd
00000030: 69dd dc3d 24ed a73b a9da 04be 4548 05be
00000040: 5caa e2bc 9203 153d dc61 1e3d 4cc6 303e
00000050: 5fb1 18be 6f32 2e3a b2e9 cbbd c61b 1abd
00000060: 0ef1 653d 4049 60bb fa5d 75bd 29e0 5bbd
00000070: e67e 8cbd bc57 2abd 0e17 e63d 7535 003e
00000080: c401 b0bc 807b b2ba f11d 9bbc e175 e83d
00000090: 64e1 aebd c1ce f7bc d41e 073e 3fe1 903d
000000a0: 627e 123c da85 4d3b 25a9 51be 923b da3b
000000b0: 43b5 5ebc 03e8 973d 7584 ff3c c212 fb3d
000000c0: 608d 07bb 4f2d e2bd 7547 3bbd 20f0 2c3e
000000d0: 8b98 583d 05cb febb a991 23be 69c5 03bd
000000e0: a638 b23d 98a4 903d d191 47bc 045f df3c
000000f0: 1104 5b3a 7ac2 b93c d742 06bc 38f7 05bd
00000100: 3ed7 d7bd 09e5 11be 9a0d 993d 990d f23c
00000110: 0e89 af3d 9fcc f6bd 478f f0bd 81b8 2dbc
00000120: 3641 af3c 781b 103e da18 a5bd dc0d ce3d
00000130: f3c9 723d bbe2 a4bd 32f2 c5bd dd18 8f3a
00000140: 20b2 dcbc 5581 f83d 6dc0 44bd 914f 683d
00000150: 9b3e 133d fb8d 91bd 6686 afbc 0aab 0f3d
00000160: f1e0 053e 93f2 9f3d e933 103e 1ce5 b73d
00000170: fc90 49bd 34ec a73c 2f6f 36bd a4f0 fabd
00000180: 3515 6b3c d949 9e3c 1fa0 193d 08f8 9c3d
00000190: b52a 28bd 7639 543d b177 0b3c fbc4 16be
000001a0: ef63 c4bd 1816 c43c 06d4 963c 60a1 b3bd
000001b0: ca9f 0d3d 15cf 54be ec81 15be 324e cabd
000001c0: 4caf 2cbd d730 edbd 15b6 583b c1bc c73c
000001d0: 1f62 a4bc b509 a3bb 1e9f 69bd 49be c4bd
000001e0: 5c87 0e3c 3f29 673d 65ba fe3d e7c5 b6bc
000001f0: 8552 a3bd bd10 5c3e c3ac f83c 2958 103c
00000200: 433e 04be a57f 6a3b ac07 5fbd 5aec eebc
00000210: 0733 77bc 0956 62bd 07fc 893d 9f38 42bd
00000220: 883a aabd 9e3e 86bd b1bb 90bd d38c 983d
00000230: edf3 15be f8ed cfbd b76a b3bd b8e6 1bbe
00000240: 8dc1 3f3d a20d 0abe a911 1f3d 3a6c 423e
00000250: 729b 78bd 75c0 163d b0cf 13be ef29 bd3d
00000260: ad97 be3d 7a4b 08bd 3504 053e 94b2 97bc
00000270: e813 583d 9f3a 833d 9ac1 883d 889b 66bd
00000280: 29a5 31bd 1368 24bd da43 223e 8ff3 ee3d
00000290: 4492 f73d 3ad5 a2bd 0d3b 2fbe 5c4b 6dbe
000002a0: db6c 823d f689 cc3d 39bd 72bc a8d0 9cbc
000002b0: b21c 01be a9f5 edbc 8924 593b a18f babc
000002c0: 01a2 6fbe add5 ba3d c87e 78bd 8684 8b3d
000002d0: ff36 a5ba 722a 91bd ed4a 00be 4caa de3c
000002e0: d0f7 573e 27c2 1ebe 4884 e7bd a424 0e3e
000002f0: 2306 48be 1a5e ac3e 94d5 e03d 5f6a 513e
00000300: 0354 75bc 8fe7 9d3d 352a c73c 1a3a f43d
00000310: 2aaa 3f3d 1f70 393d 418e 2e3e a43c 1fbe
00000320: 6e21 c23c 219d 4a3e bda8 97bc dfaf 4f3e
00000330: 81ff b23d df8b 6d3d 6687 23bd 448d 9dbd
00000340: 71b7 1e3e c02b b7bd 180e 593c 005d 06be
00000350: 516e 47be ce0e ee3b 975f 30bc 43d4 f1bc
00000360: f736 d63d 63dd 6b3d faf1 143d 6989 6fbd
00000370: 8ee1 69bb c67b f6bd fc80 dbbe d488 383e
00000380: 5fb1 86bd ab24 d7bd 4ede 203e b2fc 8d3d
00000390: 17ed f7bd bb29 f43d e8f6 973d 3598 b13c
000003a0: 1ecf d2bd e213 be3c 707a dabd 8803 51be
000003b0: ddf6 753d be37 c53a 8adf 963c 7dab 433d
000003c0: 4855 8bbd b901 563d 74d7 7cbd 52f4 a1bc
000003d0: 2636 ffbd ae82 34bd 8220 c5bb af22 c43d
000003e0: a648 283e 7ac8 033d bc3d cebd c7dd cb3c
000003f0: a7b7 cb3c 769a 6e3d e171 0cbe f09d 373d

bias f4 [256]
-0.14864923 -0.09724521 -0.187122 -0.064022094 -0.121037126 -0.047978133 -0.09540207 -0.004425596
-0.15334393 -0.12699334 -0.15907274 -0.07885589 0.0019737147 -0.013041056 -0.19171579 -0.01968591
-0.18494095 -0.05234197 -0.120720804 -0.06001199 0.029525263 -0.020653244 -0.18625829 -0.20244387
0.011886851 -0.08314856 -0.23378757 0.0055815796 -0.2778617 -0.1637858 -0.008665272 -0.111907855
-0.08239635 -0.03574221 -0.08077652 -0.033089705 -0.2327428 -0.031189123 -0.061202366 -0.14786917
-0.0936346 -0.13883877 -0.15061842 -0.16023725 -0.11296654 -0.117630675 -0.023789605 -0.10113849
-0.10437206 -0.096957445 -0.13946183 -0.0064378916 -0.09954601 -0.044452313 -0.07456306 -0.04885684
-0.13716856 -0.19860102 -0.15034223 -0.19014819 -0.12605317 -0.12752084 -0.16567136 -0.10349265
-0.114115946 0.0038741047 -0.053540062 -0.043155532 -0.029635943 -0.17394519 -0.029559046 -0.010061985
-0.14716552 -0.09021068 -0.21785088 -0.108448826 -0.06007341 -0.07672566 -0.21941535 -0.06081909
-0.17699993 0.09309575 -0.048731282 -0.04143883 -0.041898653 -0.039090183 -0.1402121 -0.05021852
-0.07771794 -0.0015578833 -0.032248992 -0.01299247 -0.16585326 -0.09505941 -0.17793977 -0.17965168
-0.08833995 -0.19068953 -0.082897745 -0.016485266 -0.20320515 -0.17362921 -0.09576205 -0.04734872
-0.052685615 -0.11379165 -0.15139359 -0.113918684 -0.0863425 -0.07024811 -0.3607614 -0.06443145
-0.12187667 -0.17410888 0.009321087 -0.032884195 -0.05969732 -0.06503071 -0.2493949 -0.068525046
-0.13982023 0.05040245 -0.056896348 -0.11199561 -0.36523464 -0.039569605 -0.11460406 0.06319841
0.01677366 -0.05469585 -0.25048846 -0.339577 -0.07378426 0.014603405 -0.11181448 -0.0721495
0.0048741405 -0.09051922 -0.06597538 -0.0030719044 -0.040178515 -0.23629038 -0.048030168 -0.06693424
-0.14077795 0.016114557 -0.056060746 -0.055510413 -0.02323295 -0.0056142514 -0.054490633 -0.12812829
-0.010537666 -0.050810833 -0.025827065 -0.0042107543 -0.06987626 -0.106478006 -0.14630346 -0.18789658
-0.20585257 -0.088071086 -0.08205655 -0.026084911 -0.07707096 -0.14306532 -0.049054 -0.09133053
-0.06221185 -0.13417266 -0.10855754 -0.18678498 0.01894378 -0.12727003 -0.250141 -0.12541397
-0.15373358 -0.09437683 -0.21437646 -0.15830864 -0.19226639 -0.17148222 -0.12062118 -0.05440181
-0.007652834 0.01420611 -0.12226277 -0.15423885 -0.053977408 -0.067404084 -0.16121735 -0.0027887514
-0.15445761 -0.030969929 0.057059593 -0.17891859 -0.067334756 -0.13581114 -0.13621949 -0.17090118
-0.11614651 -0.0440224 -0.120687395 -0.1821273 -0.12455474 -0.12505564 -0.07105967 -0.12549226
-0.14295115 -0.057674814 -0.034538765 -0.18982853 -0.05052545 -0.1470447 -0.112299494 -0.25071958
-0.06809747 -0.23128587 -0.20497568 -0.18566458 -0.053491656 -0.054654717 -0.10701047 -0.04650495
-0.034195114 -0.13789368 -0.05013849 -0.26132736 -0.09521401 0.010130707 -0.121360876 -0.18521743
-0.279648 -0.08835538 -0.22938871 -0.09392045 -0.07457855 -0.11394181 -0.047368843 -0.21942598
-0.14300126 -0.15946521 -0.25567776 -0.02420186 -0.17994544 0.007609258 -0.12831713 -0.12758982
-0.16207817 -0.26317322 -0.021135662 -0.14036188 -0.090098806 -0.23361835 -0.14031753 -0.088622265
00000000: 8137 18be 7f28 c7bd e99c 3fbe 041e 83bd
00000010: 50e2 f7bd b884 44bd 2962 c3bd 9704 91bb
00000020: 3106 1dbe 8b0a 02be f7e3 22be 327f a1bd
00000030: 7059 013b 27aa 55bc 2551 44be 5844 a1bc
00000040: 2961 3dbe 8964 56bd 783c f7bd 22cf 75bd
00000050: f7de f13c fe30 a9bc 7eba 3ebe 724d 4fbe
00000060: 11c1 423c cb49 aabd 0266 6fbe afe5 b63b
00000070: e443 8ebe 77b7 27be c9f8 0dbc f22f e5bd
00000080: 6bbf a8bd 6c66 12bd 296e a5bd 1289 07bd
00000090: 2154 6ebe 5580 ffbc 55af 7abd 046b 17be
000000a0: 7fc3 bfbd c02b 0ebe b73b 1abe 3c15 24be
000000b0: 005b e7bd 5ae8 f0bd 6be2 c2bc b221 cfbd
000000c0: 05c1 d5bd a091 c6bd 15cf 0ebe f3f4 d2bb
000000d0: c7de cbbd a113 36bd 85b4 98bd 1c1e 48bd
000000e0: ea75 0cbe 115e 4bbe 50f3 19be 35b6 42be
000000f0: 1514 01be d394 02be c1a5 29be f4f3 d3bd
00000100: 9fb5 e9bd b1e4 7d3b d34c 5bbd dbc3 30bd
00000110: 14c7 f2bc b01e 32be d025 f2bc 06db 24bc
00000120: 8fb2 16be 61c0 b8bd 4d14 5fbe 6b1a debd
00000130: 890f 76bd 5822 9dbd 6bae 60be 701d 79bd
00000140: 783f 35be fca8 be3d 749a 47bd c3bb 29bd
00000150: ec9d 2bbd 071d 20bd c393 0fbe efb1 4dbd
00000160: 952a 9fbd e431 ccba 8517 04bd 5ede 54bc
00000170: 70d5 29be 82ae c2bd d835 36be 9cf6 37be
00000180: 93eb b4bd 1e44 43be 4bc6 a9bd 1c0c 87bc
00000190: 0315 50be dbcb 31be e51e c4bd bbf0 41bd
000001a0: dfcc 57bd 990b e9bd ec06 1bbe 334e e9bd
000001b0: 56d4 b0bd 3ede 8fbd b8b5 b8be a3f4 83bd
000001c0: 7a9a f9bd 9949 32be 79b7 183c 94b1 06bd
000001d0: 2d85 74bd d22e 85bd 6061 7fbe dc56 8cbd
000001e0: 092d 0fbe cd72 4e3d 250c 69bd f45d e5bd
000001f0: 0900 bbbe bd13 22bd 89b5 eabd 2b6e 813d
00000200: ea68 893c c108 60bd 0640 80be 09dd adbe
00000210: 341c 97bd 1f43 6f3c fdfe e4bd 1ec3 93bd
00000220: 41b7 9f3b 2462 b9bd 1a1e 87bd 0152 49bb
00000230: 3a92 24bd 1bf6 71be 48bb 44bd d214 89bd
00000240: 1828 10be ad02 843c f49f 65bd e35e 63bd
00000250: 0753 bebc c1f7 b7bb 9231 5fbd 1034 03be
00000260: 2da6 2cbc 051f 50bd 4893 d3bc 5efa 89bb
00000270: 491b 8fbd 2411 dabd 93d0 15be f667 40be
00000280: 04cb 52be 9d5e b4bd 440d a8bd 06b0 d5bc
00000290: 61d7 9dbd b77f 12be d9ec 48bd 800b bbbd
000002a0: dad1 7ebd 8f64 09be 6a53 debd 9044 3fbe
000002b0: fc2f 9b3c 1353 02be 7b12 80be 856c 00be
000002c0: 566c 1dbe a448 c1bd 8185 5bbe a91b 22be
000002d0: 7be1 44be 0999 2fbe 3d08 f7bd 6fd4 5ebd
000002e0: a0c4 fabb bec0 683c e764 fabd caf0 1dbe
000002f0: 6a17 5dbd 270b 8abd 2916 25be 7cc3 36bb
00000300: 232a 1ebe a6b4 fdbc 52b7 693d 6f36 37be
00000310: cee6 89bd 1312 0bbe 1f7d 0bbe b800 2fbe
00000320: 39de edbd d550 34bd f42a f7bd 947f 3abe
00000330: 8e16 ffbd 960e 00be bb87 91bd 0b81 00be
00000340: c961 12be 6d3c 6cbd 8578 0dbd 6962 42be
00000350: c6f3 4ebd e392 16be 47fd e5bd 515e 80be
00000360: b076 8bbd 34d6 6cbe 25e5 51be db1e 3ebe
00000370: 111a 5bbd a0dd 5fbd 4e28 dbbd f97b 3ebd
00000380: 2d10 0cbd 0034 0dbe 045e 4dbd b3cc 85be
00000390: 90ff c2bd 44fb 253c 0d8c f8bd a3a9 3dbe
000003a0: 062e 8fbe aaf3 b4bd e0e4 6abe 5d59 c0bd
000003b0: a4bc 98bd 535a e9bd d505 42bd 34b1 60be
000003c0: ec6e 12be d94a 23be 32e8 82be fb42 c6bc
000003d0: 9e43 38be 1557 f93b 9165 03be e8a6 02be
000003e0: d2f7 25be a4be 86be b224 adbc 06bb 0fbe
000003f0: b985 b8bd a639 6fbe 66af 0fbe 977f b5bd

weight f4 [128, 256]
-0.040196646 0.042778254 0.033142842 -0.093998395 0.010260031 -0.037353642 -0.005953147 0.0503578
0.058539707 -0.008528479 -0.056065764 -0.08243314 -0.020337222 -0.03812506 0.03528894 -0.009710513
0.11228723 -0.087037735 0.06135711 -0.022298591 -0.021444065 -0.16398795 -0.09465227 0.05849477
-0.024235632 -0.033366095 0.047905333 0.08214452 0.09022656 0.012057867 0.036877334 0.051471442
-0.059979938 0.041464936 0.00019622853 0.041296277 0.16722398 -0.22081864 0.03359106 0.081832595
0.07047369 -0.073722295 -0.066622555 0.17260589 -0.0047023385 0.04307182 -0.025921607 0.025596917
0.009029796 0.09445207 0.01781241 0.06285877 0.008047551 0.009162585 0.03671989 0.044352867
0.10384619 0.1642349 -0.008262801 0.0080948435 -0.15490606 -0.01438291 0.0544945 0.009314646
0.047507156 -0.017043747 -0.08118206 0.012686666 0.050754786 0.033342 -0.0812522 0.054147758
-0.030367138 -0.0358208 0.11742389 -0.047665406 0.037026275 0.082459435 0.036299326 -0.007320269
0.12566088 -0.10944771 -0.099637896 0.09338282 0.03184679 -0.11659509 0.047319345 -0.008355504
-0.04833671 0.0021028202 -0.055624936 0.07645681 0.0062865783 -0.14937478 0.00999622 0.11068628
0.031455014 -0.010959116 0.017770348 -0.14390163 0.13922876 0.09430922 -0.063489355 -0.12726071
0.0047355043 0.022965612 0.062075276 0.06565006 -0.08826463 0.009486831 0.08573584 -0.10583164
-0.08288112 -0.03691508 0.088898875 0.030085554 -0.046337 -0.057711404 -0.004752819 0.069317564
0.10506166 0.04073109 -0.022557594 -0.08192654 -0.045248233 -0.057772804 -0.05017008 0.04190295
0.00893027 -0.0061778314 -0.14779855 0.055881023 0.044435028 -0.04844803 0.06276485 -0.03994373
-0.15807177 -0.16815025 0.21014592 -0.03097876 0.025699945 0.0146433385 -0.008809817 -0.17471492
-0.13845593 -0.044297297 0.019839345 -0.0015795355 0.14085025 0.048904385 -0.052900575 -0.11211931
-0.0444771 -0.13534872 -0.020879507 0.011392343 0.12846045 0.005836846 -0.108714424 -0.059036393
0.103382625 -0.12686974 0.07245626 0.025608836 -0.066732936 0.045826986 0.042179387 0.082837276
-0.014460762 0.0062318565 0.13782614 0.08108085 -0.11040576 0.06982022 -0.0023052897 -0.08751958
-0.16151837 -0.0125025995 0.050756563 0.060274303 -0.06295515 0.082122244 -0.08317044 0.06791033
-0.08057169 -0.027517067 0.12770359 -0.03481781 -0.014869431 0.062337384 0.09294619 -0.10674004
-0.13279173 0.074339345 -0.087060526 -0.08290741 -0.09174123 0.09661365 -0.025826126 0.015049849
-0.079295635 -0.12295827 0.06492758 0.0025454222 -0.023163686 0.027943585 0.007215206 0.06673605
0.0004379911 0.036690816 -0.061540436 -0.03984402 -0.10480551 0.13342848 -0.033711594 -0.007229251
-0.034494855 0.092655696 0.20245658 0.021407127 0.11687086 0.03200699 -0.009418319 -0.008893285
0.009465209 0.1682746 -0.044956166 0.14578703 0.041293632 0.06850276 -0.04645703 0.10496577
-0.012055394 0.041281864 0.09787103 -0.00086318154 -0.010769452 0.061888963 -0.019307591 0.06176232
0.1678035 0.071521975 0.044235356 0.0022167559 0.07400759 0.028711101 0.006795933 -0.041790567
0.10164528 0.055229988 -0.0329751 0.027595079 -0.13195421 -0.031485412 -0.036602058 -0.044465844
00000000: 3da5 24bd 4038 2f3d cac0 073d 3b82 c0bd
00000010: b019 283c 2200 19bd 9e12 c3bb fb43 4e3d
00000020: 55c7 6f3d 09bb 0bbc 37a5 65bd b5d2 a8bd
00000030: 3f9a a6bc 0629 1cbd 238b 103d d818 1fbc
00000040: d9f6 e53d d740 b2bd 9851 7b3d 89ab b6bc
00000050: 77ab afbc 75ec 27be 0dd9 c1bd 3698 6f3d
00000060: ce89 c6bc e3aa 08bd 6238 443d 633b a83d
00000070: b4c8 b83d 5c8e 453c b00c 173d b8d3 523d
00000080: 86ad 75bd 23d7 293d b2c2 4d39 4926 293d
00000090: c33c 2b3e 481e 62be c896 093d d997 a73d
000000a0: 8354 903d b7fb 96bd 6871 88bd 99bf 303e
000000b0: 1316 9abb 146c 303d 8d59 d4bc a0b0 d13c
000000c0: b6f1 133c 1670 c13d 55eb 913c 19bc 803d
000000d0: e0d9 033c ab1e 163c 9867 163d 5aab 353d
000000e0: 50ad d43d 322d 283e b360 07bc 3ca0 043c
000000f0: b29f 1ebe 4ca6 6bbc a035 5f3d 759c 183c
00000100: dd96 423d 549f 8bbc c842 a6bd bcdb 4f3c
00000110: 40e4 4f3d 9f91 083d 8e67 a6bd 0aca 5d3d
00000120: 81c4 f8bc d5b8 12bd f07b f03d cd3c 43bd
00000130: dda8 173d 7ee0 a83d 9aae 143d dede efbb
00000140: 3fad 003e 1f26 e0bd f40e ccbd 7e3f bf3d
00000150: c871 023d 68c9 eebd eed1 413d 86e5 08bc
00000160: b7fc 45bd 78cf 093b f9d6 63bd 6395 9c3d
00000170: a4ff cd3b b4f5 18be 2fc7 233c 7daf e23d
00000180: f9d6 003d dd8d 33bc 1f93 913c f35a 13be
00000190: fc91 0e3e 3125 c13d b506 82bd a250 02be
000001a0: 4a2c 9b3b 6122 bc3c a542 7e3d 8a73 863d
000001b0: 16c4 b4bd a76e 1b3c 4696 af3d 42be d8bd
000001c0: 94bd a9bd 4434 17bd 9d10 b63d fb75 f63c
000001d0: decb 3dbd cb62 6cbd 89bd 9bbb 5ef6 8d3d
000001e0: 912a d73d a5d5 263d b4ca b8bc 1ac9 a7bd
000001f0: 3656 39bd 2da3 6cbd 247f 4dbd 6da2 2b3d
00000200: 4450 123c 686f cabb 8158 17be 80e3 643d
00000210: 8101 363d 7171 46bd dc8a 803d 099c 23bd
00000220: 91dd 21be 942f 2cbe 7e30 573e 2bc7 fdbc
00000230: b188 d23c 9dea 6f3c 0d57 10bc 78e8 32be
00000240: 64c7 0dbe 1571 35bd 1f86 a23c 6b08 cfba
00000250: 0c3b 103e f74f 483d 46ae 58bd cf9e e5bd
00000260: 9f2d 36bd db98 0abe 800b abbc f3a6 3a3c
00000270: 238b 033e 0343 bf3b aba5 debd 25d0 71bd
00000280: 45ba d33d 24ea 01be f363 943d 9fc9 d13c
00000290: 47ab 88bd 14b5 3b3d 4bc4 2c3d 97a6 a93d
000002a0: d5ec 6cbc 9a34 cc3b 4c22 0d3e b70d a63d
000002b0: 6a1c e2bd e7fd 8e3d 5814 17bb 773d b3bd
000002c0: 1265 25be b4d7 4cbc 1de6 4f3d 30e2 763d
000002d0: a1ee 80bd b52f a83d 4355 aabd 9214 8b3d
000002e0: c502 a5bd 796b e1bc bbc4 023e 1f9d 0ebd
000002f0: ea9e 73bc 7c55 7f3d 925a be3d 869a dabd
00000300: 8efa 07be 3a3f 983d ca4c b2bd 5ccb a9bd
00000310: d3e2 bbbd 61dd c53d 5091 d3bc a493 763c
00000320: c065 a2bd 8cd1 fbbd c0f8 843d 19d1 263b
00000330: c5c1 bdbc f2e9 e43c 896d ec3b e9ac 883d
00000340: 2ca2 e539 1c49 163d d311 7cbd 7c33 23bd
00000350: 45a4 d6bd 7aa1 083e 2b15 0abd 5ae3 ecbb
00000360: 7a4a 0dbd 45c2 bd3d c750 4f3e 005e af3c
00000370: fd59 ef3d c319 033d 4b4f 1abc 24b5 11bc
00000380: f713 1b3c 2d50 2c3e f523 38bd 3249 153e
00000390: 8323 293d 2d4b 8c3d ba49 3ebd 4bf8 d63d
000003a0: fd83 45bc 2c17 293d 9b70 c83d 2247 62ba
000003b0: 5b72 30bc 487f 7d3d f42a 9ebc 7dfa 7c3d
000003c0: aed4 2b3e 1d7a 923d 2230 353d fe46 113b
000003d0: 4b91 973d 8b33 eb3c 6bb0 de3b 962c 2bbd
000003e0: 672b d03d d738 623d e610 07bd 130f e23c
000003f0: 011f 07be d9f6 00bd 0aec 15bd d121 36bd

bias f4 [128]
-0.065445475 0.024754388 -0.057224274 -0.0072540375 -0.29378712 -0.03427229 -0.095909186 0.019920383
-0.08334915 -0.07160033 -0.2959135 -0.05714564 -0.07154732 0.025417933 -0.04994748 -0.07373789
0.012185492 -0.13444966 -0.26771748 0.005108854 -0.13511556 0.0009766214 -0.038742755 0.021401225
-0.0064963386 -0.070621125 -0.1002348 -0.09339867 -0.016137011 -0.06031003 -0.060568236 -0.08833865
-0.03370808 -0.03854564 -0.29959276 -0.06602572 -0.10169325 -0.13022237 -0.075705804 -0.099060066
-0.005681139 -0.08552102 -0.089170195 -0.21171682 -0.02879273 -0.018206099 -0.22737643 -0.095613874
-0.065901786 -0.078304306 -0.12557487 -0.059070677 -0.1458182 -0.07084611 -0.02078805 -0.08146003
-0.20221998 0.08131833 -0.111068495 -0.13745013 -0.008825548 -0.0017011395 -0.17612185 -0.13615516
-0.6416295 -0.15060438 -0.043086234 -0.11912256 -0.08791028 -0.07505073 -0.026458511 -0.03668709
-0.05474622 0.09976736 -0.26689312 -0.020721931 -0.053800803 -0.23119606 0.012012521 -0.12933761
-0.003392904 -0.01573403 0.03056524 0.003062872 -0.0828456 -0.022742553 -0.0369127 -0.12975606
-0.16012283 -0.022387652 -0.038449984 -0.07499315 -0.10763426 -0.071415015 -0.03062807 -0.05059842
-0.018742422 0.02438905 -0.106319875 -0.08160368 -0.0143319825 -0.053828806 -0.13629097 -0.010009309
-0.14358588 -0.0681796 -0.06453458 -0.1347478 -0.0756368 -0.1841194 0.05933446 -0.004655598
-0.08033883 -0.13071224 -0.11981335 -0.09589719 -0.14022614 -0.10221044 -0.11533741 -0.034994297
-0.02211686 -0.0066842753 0.022357605 0.00037466708 -0.101618886 -0.06173839 -0.00947731 0.008717011
00000000: 4708 86bd b7c9 ca3c 0064 6abd 47b3 edbb
00000010: 446b 96be 1a61 0cbd 096c c4bd 1230 a33c
00000020: f6b2 aabd 32a3 92bd f981 97be 8c11 6abd
00000030: 6787 92bd 4539 d03c bb95 4cbd e403 97bd
00000040: a8a5 473c 2cad 09be 4412 89be 2c68 a73b
00000050: bc5b 0abe fa01 803a b9b0 1ebd 9f51 af3c
00000060: 3ddf d4bb cfa1 90bd e747 cdbd cd47 bfbd
00000070: c431 84bc a607 77bd 6616 78bd e5ea b4bd
00000080: 7c11 0abd 08e2 1dbd 3964 99be 7e38 87bd
00000090: 8d44 d0bd 0359 05be a50b 9bbd 01e0 cabd
000000a0: d928 babb a525 afbd dd9e b6bd 4bcc 58be
000000b0: bbde ebbc f524 95bc 5ed5 68be 35d1 c3bd
000000c0: 84f7 86bd 025e a0bd b396 00be 18f4 71bd
000000d0: 5e51 15be c417 91bd b34b aabc 84d4 a6bd
000000e0: c112 4fbe 398a a63d e177 e3bd babf 0cbe
000000f0: 0899 10bc c5f8 deba 4959 34be 426c 0bbe
00000100: d541 24bf 0938 1abe 317b 30bd 87f6 f3bd
00000110: 4e0a b4bd 32b4 99bd 85bf d8bc 3445 16bd
00000120: 933d 60bd d452 cc3d 37a6 88be 0ac1 a9bc
00000130: 3b5e 5cbd a9be 6cbe 2ad0 443c 1471 04be
00000140: 7c5b 5ebb a7e4 80bc f463 fa3c 77ba 483b
00000150: f4aa a9bd 974e babc c531 17bd c6de 04be
00000160: 3df7 23be 4f66 b7bc bb7d 1dbd 0296 99bd
00000170: 5a6f dcbd 0942 92bd b8e7 fabc 4a40 4fbd
00000180: b589 99bc 8ccb c73c 3cbe d9bd d51f a7bd
00000190: b1d0 6abc 987b 5cbd dc8f 0bbe 16fe 23bc
000001a0: 2d08 13be bfa1 8bbd b52a 84bd 54fb 09be
000001b0: 77e7 9abd cc89 3cbe b108 733d fd8d 98bb
000001c0: af88 a4bd 6ed9 05be b460 f5bd bf65 c4bd
000001d0: 7197 0fbe b553 d1bd 0536 ecbd 2e56 0fbd
000001e0: 6b2e b5bc c407 dbbb 4c27 b73c f76e c439
000001f0: 901d d0bd 65e1 7cbd b846 1bbc cbd1 0e3c

weight f4 [12, 128]
0.06973812 -0.063601695 0.031122467 -0.015671486 -0.04045474 0.007850824 0.006848912 0.009929048
-0.016138425 0.009150959 -0.0452131 0.007191978 0.017354947 -0.020232642 -0.05039836 -0.031944193
0.025856167 0.006600286 -0.030578174 -0.018983575 -0.04385716 -0.008316147 -0.024778696 -0.011568847
-0.0450369 0.014477448 -0.0015322566 0.047630973 0.028880158 -0.06532422 0.009341464 -0.009619352
-0.012960792 0.002451557 -0.054580607 0.019043526 0.086243525 0.06790651 0.004490462 0.01110199
0.030835204 0.01000309 -0.028432172 -0.010527504 0.0046762666 0.021869998 0.018764785 0.03413606
-0.025969276 -0.020776797 -0.020730915 -0.0062419795 -0.1265193 0.018195175 0.004077161 -0.020703387
0.0010855787 0.012735055 0.012872085 -0.030242005 -0.005970473 0.022090295 0.006357487 -0.02448231
-0.059185322 0.0070778714 0.024721486 0.017902987 0.01289173 -0.004218464 -0.0010651394 0.025219033
0.0014779961 0.0032716526 0.024201933 -0.03807577 -0.03991087 -0.061961286 0.0030272224 0.0012069949
0.057430487 0.009989772 -0.045954432 0.004782196 0.039543748 0.025846617 0.0057902634 -0.0075842966
0.030568564 -0.015926858 0.012336377 -0.03807667 -0.0034126753 0.0040370952 0.15291072 0.010135599
0.01071161 0.05778741 0.01603908 0.041009378 -0.0031237938 0.008682378 0.016385462 0.0023220684
0.047503218 -0.013914481 0.0033048145 -0.03376273 -0.030382937 -0.026397385 -0.07243018 -0.037208904
-0.014066017 -0.023872044 0.06427909 -0.005186135 -0.009438693 0.008037603 0.003958345 -0.011450414
0.01202916 0.019215403 0.00080133404 -0.020181257 0.02971129 -0.053526375 -0.028521992 -0.014917688
-0.04471183 0.026774516 0.02559039 -0.022139303 -0.06314261 0.011676673 0.012340308 0.034538656
-0.12194828 0.10573277 -0.017619848 0.01185212 0.0042949817 0.018808635 -0.0061735027 0.08570588
-0.10081185 -0.04354962 0.13277018 0.02777815 -0.015170085 -0.056239244 0.10435549 -0.045633033
0.0361651 0.012742261 -0.013767624 0.037988994 0.012051984 -0.02166084 -0.009804403 -0.015679426
0.053050894 -0.17202133 0.14093557 0.003339096 0.080244556 -0.039897043 -0.014318512 -0.030976225
0.02100372 0.018850464 -0.08340235 0.055414982 0.029842678 -0.0034506717 -0.009661867 0.012426919
-0.057194795 -0.023713559 0.002971406 -0.056606617 -0.2098131 0.038805734 0.027653145 0.022395981
0.033582218 -0.061267886 0.08253206 -0.0015876929 -0.00657514 -0.07741471 0.032433145 -0.005992584
-0.04759014 -0.07732309 -0.01856586 -0.011580897 -0.057582393 -0.05276246 0.010618564 -0.02395444
0.032511435 0.13709472 -0.028805023 0.037048206 0.050675027 -0.022489715 0.084453195 0.04853433
0.009477153 -0.05570433 0.010018528 0.04294562 0.0305738 -0.02641256 -0.00666569 0.01024802
-0.022159558 -0.010755742 -0.04392529 -0.051435158 -0.040637184 0.042969465 -0.19246833 0.036144968
-0.052747764 0.12058389 -0.024329508 0.007128211 0.026913172 -0.01791286 0.008426638 0.12130317
0.07610343 0.09861466 -0.022759322 -0.008864741 0.00079306954 0.07896149 0.10066401 0.013859473
0.0119267255 0.0040511126 0.0705212 -0.019842695 -0.0323786 -0.049116995 -0.018539589 0.030995097
-0.03510263 0.012701847 -0.016553348 -0.022332903 -0.011076791 -0.03354981 0.033625815 -0.022160297
00000000: dcd2 8e3d 9b41 82bd 8bf4 fe3c 7d61 80bc
00000010: dfb3 25bd bea0 003c d76c e03b 72ad 223c
00000020: bb34 84bc e7ed 153c 5f31 39bd afaa eb3b
00000030: f62b 8e3c edbe a5bc 836e 4ebd ead7 02bd
00000040: 50d0 d33c 3647 d83b 147f fabc 7183 9bbc
00000050: 91a3 33bd 7340 08bc b1fc cabc 438b 3dbc
00000060: 9d78 38bd d132 6d3c 00d6 c8ba b218 433d
00000070: 1596 ec3c b4c8 85bd f10c 193c 7d9a 1dbc
00000080: 8059 54bc 4daa 203b ea8f 5fbd 2b01 9c3c
00000090: 72a0 b03d 9112 8b3d ba24 933b 1fe5 353c
000000a0: 1c9a fc3c 00e4 233c 96ea e8bc 8d7b 2cbc
000000b0: 5e3b 993b b628 b33c 9bb8 993c 41d2 0b3d
000000c0: 85bd d4bc 1a34 aabc e1d3 a9bc 8589 ccbb
000000d0: 468e 01be 0c0e 953c b599 853b 269a a9bc
000000e0: fa49 8e3a b1a6 503c 70e5 523c 15be f7bc
000000f0: f5a3 c3bb b5f6 b43c 7752 d03b 208f c8bc
00000100: 4f6c 72bd 7ded e73b b784 ca3c 49a9 923c
00000110: d637 533c 0a3b 8abb 269c 8bba 2598 ce3c
00000120: 52b9 c13a 3969 563b 2243 c63c 57f5 1bbd
00000130: 9579 23bd 1ecb 7dbd 5d64 463b 0734 9e3a
00000140: 3b3c 6b3d 24ac 233c b73a 3cbd f8b3 9c3b
00000150: a0f8 213d 49bc d33c 40bc bd3b b185 f8bb
00000160: ed6a fa3c 0b79 82bc 841e 4a3c 48f6 1bbd
00000170: 31a7 5fbb 9c49 843b a194 1c3e c90f 263c
00000180: c07f 2f3c 7eb2 6c3d 6464 833c 73f9 273d
00000190: 90b8 4cbb 8840 0e3c ce3a 863c d82d 183b
000001a0: bc92 423d 90f9 63bc 9695 583b ca4a 0abd
000001b0: a3e5 f8bc 543f d8bc 4656 94bd 5d68 18bd
000001c0: 2775 66bc 4e8f c3bc c1a4 833d 74f0 a9bb
000001d0: bfa4 1abc 27b0 033c 01b5 813b 849a 3bbc
000001e0: f415 453c 9f69 9d3c 9e10 523a 2a53 a5bc
000001f0: 1765 f33c 793e 5bbd f4a6 e9bc 5269 74bc
00000200: c023 37bd 3b56 db3c f0a2 d13c 7c5d b5bc
00000210: ea50 81bd 844f 3f3c 012f 4a3c 6878 0d3d
00000220: 05c0 f9bd 6c8a d83d 8057 90bc 652f 423c
00000230: ebbc 8c3b 9114 9a3c 184b cabb 9086 af3d
00000240: 7176 cebd 1661 32bd e8f4 073e 018f e33c
00000250: f38b 78bc 1f5b 66bd 55b8 d53d b4e9 3abd
00000260: db21 143d ebc4 503c 9a91 61bc 599a 1b3d
00000270: af75 453c 1372 b1bc a6a2 20bc 2472 80bc
00000280: e54b 593d 5c26 30be 6a51 103e bcd4 5a3b
00000290: 4257 a43d 156b 23bd 3198 6abc dac1 fdbc
000002a0: fe0f ac3c 4a6c 9a3c dace aabd d2fa 623d
000002b0: a278 f43c aa24 62bb cf4c 1ebc 479a 4b3c
000002c0: 1745 6abd f042 c2bc ecbb 423b 57dc 67bd
000002d0: 3fd9 56be c3f2 1e3d d988 e23c c777 b73c
000002e0: 828d 093d 09f4 7abd 9206 a93d 221a d0ba
000002f0: 4674 d7bb 9a8b 9ebd 9ed8 043d 705d c4bb
00000300: e1ed 42bd 915b 9ebd 6e17 98bc cdbd 3dbc
00000310: 84db 6bbd 731d 58bd 7cf9 2d3c 1a3c c4bc
00000320: b62a 053d 8f62 0c3e 83f8 ebbc dcbf 173d
00000330: 9e90 4f3d 5a3c b8bc ccf5 ac3d efcb 463d
00000340: 1046 1b3c 392a 64bd c124 243c bfe7 2f3d
00000350: e875 fa3c 275f d8bc dc6b dabb 50e7 273c
00000360: f687 b5bc da38 30bc 01eb 33bd acad 52bd
00000370: 2d73 26bd c000 303d 6b16 45be bf0c 143d
00000380: 0a0e 58bd b0f4 f63d ad4e c7bc c593 e93b
00000390: 0379 dc3c fdbd 92bc e20f 0a3c cc6d f83d
000003a0: 1ddc 9b3d 7cf6 c93d c271 babc 6b3d 11bc
000003b0: ffe5 4f3a 90b6 a13d ef28 ce3d d812 633c
000003c0: 5068 433c 32bf 843b 6b6d 903d 268d a2bc
000003d0: 6c9f 04bd e72e 49bd 56e0 97bc 6ee9 fd3c
000003e0: c6c7 0fbd 681b 503c e39a 87bc 7ef3 b6bc
000003f0: 6e7b 35bc 876b 09bd 39bb 093d 8389 b5bc

bias f4 [12]
0.030190475 0.060931765 -0.28418332 -0.19344962 0.09645923 -0.2154916 0.039995644 0.07177017
-0.3523385 -0.15228792 0.07861861 -0.21278779
00000000: 0452 f73c 9693 793d 7a80 91be a817 46be
00000010: 6b8c c53d d4a9 5cbe 79d2 233d 3dfc 923d
00000020: b665 b4be 5df1 1bbe cb02 a13d 0be5 59be

weight f4 [128, 270]
-0.007665162 -0.012027628 -0.056207284 -0.29273012 -0.7526254 1.7948024 -0.2441032 0.016899545
0.2887736 0.15920863 0.013597576 -0.39506686 -0.81639516 0.03377427 -2.048957 0.8909743
1.0295886 -0.69101906 1.5314926 1.588136 -0.7174513 0.17268156 0.5235249 0.1948323
-0.36324286 0.7503911 -1.0787624 -0.18147264 0.3469597 -0.04947674 0.10796304 -0.08639577
0.06962853 -0.028405515 -0.10413834 0.026645618 -0.03870097 -0.4946375 0.39344266 -0.15568177
-0.1969865 0.12250238 -0.17516986 -0.2829559 0.08131679 -0.006361538 0.010083438 0.039847955
0.28683832 0.41174242 -0.7007673 -0.19692545 0.053406987 0.13873991 -0.2670195 0.23590943
-0.4091879 0.34562612 1.0102013 -1.0271361 0.29290727 0.41068423 -0.14051382 -0.24357311
0.5712307 0.36561263 -0.10928511 0.26198614 0.08789707 0.08112415 0.5419407 0.15820096
0.35782528 0.22264904 -0.14230202 0.20539083 0.38149077 0.2911212 0.07986554 -0.101093546
0.034228988 0.12980372 -0.28948823 0.11057643 -0.052669886 -0.14463593 0.075264856 -0.0061571053
-0.1299007 -0.098583 0.009339146 -0.015466744 0.033979908 0.08255617 0.540091 -0.7861087
-0.057857398 0.071286105 0.06519804 0.080462635 0.24688877 0.1228527 0.28346226 0.95827454
0.4547573 -0.02198123 0.08207999 0.18771303 -0.55898255 0.025167443 0.4489912 -0.17049675
0.18276705 0.15426941 0.14091145 0.5386075 0.577504 0.2102898 0.06795704 0.0010117863
-0.06439281 0.16262464 0.10353925 0.030111114 -0.01335416 -0.0096056005 0.061021045 0.0055937283
-0.10323227 -0.031016046 -0.029915897 -0.02755686 0.019154118 -0.07934934 -0.03107473 -0.0114761805
0.016829269 -0.06353692 0.09453039 0.016053455 -0.22828376 0.004566825 0.040877223 0.08490881
0.19381018 0.13824889 0.18388975 -0.10463396 0.5382206 0.57195085 0.02806957 -0.005177736
0.17076246 -0.33952057 -0.19323947 0.1863698 -0.03238493 0.08227781 0.0014027968 0.19240358
0.23242591 0.26790282 -0.02718892 -0.1459443 0.047823593 0.0012377611 -0.05322126 0.12132304
0.011560902 -0.014667383 0.033409275 0.012909361 0.026336998 -0.033834424 0.0020651522 0.0068100304
-0.057440978 0.059822034 -0.008621127 -0.057190422 0.012780939 0.0021099346 -0.090880364 -0.04025685
-0.014952031 0.026643591 -0.03434911 0.033128135 0.07853649 -0.043553624 0.11230904 0.174749
-0.14705531 0.20391919 0.25121528 0.09588539 -0.05764185 0.16577575 -0.082640134 -0.16236793
0.038237195 0.044580646 -0.00062618003 0.08442676 0.028422866 0.0023109464 -0.012302549 -0.028271861
-0.07229722 0.07125706 -0.033591606 -0.17705706 -0.051064793 -0.03255889 0.027513653 -0.024464514
-0.057194866 -0.0100307865 0.05438217 -0.025362106 0.019938659 -0.05172838 0.012224699 0.0016311544
0.0019702215 0.0023750996 0.008806045 -0.09276504 0.09488642 -0.16006309 0.1443431 -0.0326457
0.084911786 0.037033137 -0.31297144 0.04028 0.22196755 0.22724555 0.13418202 0.26551998
0.0027855865 -0.20812173 0.1920633 -0.012745488 -0.20089373 0.08543326 0.14826581 0.0087218
-0.0439514 -0.19749402 -0.091855235 -0.13164137 0.038805656 -0.012646158 0.04320316 0.17907414
00000000: 0a2c fbbb 870f 45bc 9c39 66bd b9e0 95be
00000010: 0fac 40bf 16bc e53f 30f6 79be ea70 8a3c
00000020: 22da 933e 9607 233e 5ec8 5e3c 3446 cabe
00000030: 46ff 50bf e456 0a3d 1d22 03c0 e416 643f
00000040: 8fc9 833f a0e6 30bf f307 c43f 0a48 cb3f
00000050: e3aa 37bf 6fd3 303e ba05 063f 1e82 473e
00000060: f8fa b9be a219 403f e314 8abf f7d3 39be
00000070: b4a4 b13e 1fa8 4abd ba1b dd3d 44f0 b0bd
00000080: 6799 8e3d afb2 e8bc 7b46 d5bd e947 da3c
00000090: e984 1ebd 2041 fdbe 5171 c93e 0b6b 1fbe
000000a0: d4b6 49be 87e2 fa3d ba5f 33be 99df 90be
000000b0: 6b89 a63d 7374 d0bb 0135 253c 9c37 233d
000000c0: 79dc 923e e7cf d23e 7c65 33bf d3a6 49be
000000d0: 49c1 5a3d d611 0e3e c8b6 88be 3e92 713e
000000e0: 1481 d1be e8f5 b03e 474e 813f 3279 83bf
000000f0: f1f7 953e 3445 d23e dbe2 0fbe 3b6b 79be
00000100: 2d3c 123f 9431 bb3e dfd0 dfbd 0c23 863e
00000110: 6103 b43d 6b24 a63d a0bc 0a3f 6fff 213e
00000120: e034 b73e 1cfe 633e 9fb7 11be f951 523e
00000130: c252 c33e d70d 953e 8b90 a33d 220a cfbd
00000140: b233 0c3d 44eb 043e cd37 94be e575 e23d
00000150: 61bc 57bd 711b 14be 7624 9a3d 8bc1 c9bb
00000160: b004 05be e2e5 c9bd 3803 193c 3a68 7dbc
00000170: 842e 0b3d 3613 a93d 6743 0a3f 6b3e 49bf
00000180: e1fb 6cbd 73fe 913d 8d86 853d 98c9 a43d
00000190: 69d0 7c3e 329a fb3d f721 913e 7b51 753f
000001a0: f3d5 e83e fb11 b4bc 8e19 a83d d837 403e
000001b0: 7b19 0fbf f42b ce3c 2de2 e53e b396 2ebe
000001c0: 4927 3b3e cdf8 1d3e 174b 103e 2ee2 093f
000001d0: 4dd7 133f 3656 573e 102d 8b3d ea9d 843a
000001e0: 61e0 83bd 1387 263e 630c d43d 95ab f63c
000001f0: 68cb 5abc cf60 1dbc 34f1 793d 984b b73b
00000200: 716b d3bd 5d15 febc 2f12 f5bc edbe e1bc
00000210: 19e9 9c3c e881 a2bd 6f90 febc 9706 3cbc
00000220: 89dd 893c a51f 82bd 2699 c13d 8982 833c
00000230: 38c3 69be 4ea5 953b e06e 273d ace4 ad3d
00000240: 2d76 463e 1e91 0d3e 984d 3c3e 544a d6bd
00000250: d3c8 093f 5f6b 123f 28f2 e53c ffa9 a9bb
00000260: 5bdc 2e3e a4d5 adbe 91e0 45be bad7 3e3e
00000270: 0fa6 04bd 4581 a83d 0dde b73a 7205 453e
00000280: 0f01 6e3e 8f2a 893e 4cbb debc 6c72 15be
00000290: ace2 433d 5f3c a23a 89fe 59bd 3778 f83d
000002a0: f069 3d3c 774f 70bc 2ad8 083d c981 533c
000002b0: b0c0 d73c f795 0abd 8157 073b ad26 df3b
000002c0: 3b47 6bbd f307 753d a13f 0dbc 8140 6abd
000002d0: 2567 513c d446 0a3b 7c1f babd 5ee4 24bd
000002e0: 5df9 74bc a943 da3c a7b1 0cbd 5eb1 073d
000002f0: bdd7 a03d 4965 32bd 4802 e63d 67f1 323e
00000300: ab95 16be 31d0 503e 4a9f 803e 8f5f c43d
00000310: dc19 6cbd 1ec1 293e 3b3f a9bd c743 26be
00000320: 9b9e 1c3d 329a 363d 3b26 24ba f0e7 ac3d
00000330: 12d7 e83c 3f73 173b a190 49bc 649a e7bc
00000340: 9110 94bd 39ef 913d 5a97 09bd 724e 35be
00000350: 5129 51bd 785c 05bd 5064 e13c ce69 c8bc
00000360: 2a45 6abd 2b58 24bc d7bf 5e3d 31c4 cfbc
00000370: 6656 a33c 23e1 53bd 1b4a 483c 76cc d53a
00000380: d51e 013b 8fa7 1b3b 3b47 103c 99fb bdbd
00000390: d053 c23d 94e7 23be adce 133e 7fb7 05bd
000003a0: 3be6 ad3d 0fb0 173d cb3d a0be a4fc 243d
000003b0: 764b 633e 0fb3 683e 0367 093e 3cf2 873e
000003c0: 638e 363b dd1d 55be 3eac 443e 74d2 50bc
000003d0: 16b7 4dbe a2f7 ae3d fed2 173e e1e5 0e3c
000003e0: 6206 34bd df3b 4abe 991e bcbd ffcc 06be
000003f0: aef2 1e3d d531 4fbc ccf5 303d 365f 373e
