fdsc_utils/free_dog_sdk_py/free-dog-sdk/model/policy.pt (torch, 992046 bytes, 14 tensors)

weight f4 [512, 64]
0	0x3a833a34	0.0010011853
1	0x3be81c3e	0.007083445
2	0xbc609e52	-0.0137096215
3	0xbf071365	-0.5276397
4	0x3e8d6fff	0.2762451
5	0xbc98ba8a	-0.018643636
6	0x3ebd9667	0.3702881
7	0x3eec2b7a	0.4612692
8	0x3e1167d8	0.1419977
9	0xbeeb8563	-0.46000203
10	0x3e6246a7	0.22097264
11	0x3e9374f2	0.2880016
12	0xbed5a81b	-0.41729817
13	0xbe24b4a8	-0.1608454
14	0xbe90a830	-0.28253317
15	0x3f19f9a9	0.60146576
16	0xbead90d8	-0.3389957
17	0x3e4445de	0.19167277
18	0xbe77b855	-0.24191411
19	0xbd9f5419	-0.07779712
20	0xbe0a8bcd	-0.13529892
21	0xbf21e443	-0.63238925
22	0xbd88981c	-0.066696376
23	0x3cde4f6d	0.027137483
24	0xbe96849c	-0.29398048
25	0x3e2cc66a	0.16872564
26	0x3d7c57b4	0.061607078
27	0xbc0b82ee	-0.008515103
28	0xbd824dee	-0.0636252
29	0x3e7d6ebc	0.24749273
30	0xbe447250	-0.19184232
31	0xbc0b1952	-0.008489924
32	0x3dfbb18f	0.12289726
33	0xbdb98237	-0.0905804
34	0xbbe93fee	-0.0071182167
35	0x3da14f93	0.07876506
36	0x3cb6a7b0	0.022296757
37	0xbd33c066	-0.043884657
38	0x3c83ed28	0.016104296
39	0xbd406fc4	-0.046981588
40	0x3c9c515e	0.019081768
41	0xbd965ae6	-0.07341556
42	0xbd6076da	-0.054800846
43	0x3d577796	0.05260428
44	0xbd2f091b	-0.042733293
45	0x3bcd229d	0.0062602297
46	0x3b2bceae	0.002621572
47	0x3e45c26f	0.19312452
48	0xbe23ad79	-0.15984143
49	0xbe13a5e7	-0.14418755
50	0xbcc41078	-0.023933634
51	0xbda286e9	-0.07935888
52	0x3d882a48	0.066486895
53	0x3c549725	0.012975489
54	0xbce4b4ed	-0.027918303
55	0xbc48c7ec	-0.012254696
56	0x3da066a3	0.078320764
57	0x3e16f5be	0.1474218
58	0xbd65ad24	-0.056073323
59	0x3d3a78be	0.045525305
60	0x3c4f7911	0.012663142
61	0x3c946597	0.018114848
62	0xbd89eec0	-0.06734991
63	0x3cb612ef	0.022225825
64	0x3ba32336	0.0049785627
65	0xbd049db9	-0.03237698
66	0x3d310db6	0.043225966
67	0xbe6fb88e	-0.23410246
68	0xbe697468	-0.22798312
69	0xbe378852	-0.17923096
70	0xbeb72667	-0.35771486
71	0xbe10e9ec	-0.14151734
72	0x3e18bbf9	0.14915456
73	0xbe0e98c6	-0.13925466
74	0x3e72c919	0.23709525
75	0xbe0b2a25	-0.13590296
76	0x3e2c8fe8	0.16851771
77	0xbf5dcb3d	-0.8663824
78	0xbee54818	-0.44781566
79	0x3d960d8f	0.07326805
80	0xbda2c114	-0.07946983
81	0x3e17040d	0.14747639
82	0x3ed015f0	0.40641737
83	0xbdd90b3e	-0.105978474
84	0x3cbfb551	0.023401888
85	0xbdfa3358	-0.12216824
86	0x3cb43573	0.021998143
87	0x3e00ee51	0.1259091
88	0xbe145ec5	-0.14489277
89	0x3da190e7	0.07888966
90	0x3eb96598	0.36210322
91	0xbced5cab	-0.028974852
92	0xbcb08a28	-0.021550253
93	0xbe7bb7a6	-0.24581775
94	0xbe606df8	-0.2191695
95	0xbe6df14c	-0.23236579
96	0x3debc7ad	0.115126945
97	0xbd61f973	-0.055169534
98	0xbd88c384	-0.06677917
99	0xbda8cb53	-0.08241906
100	0x3e00000d	0.1250002
101	0xbe5c6416	-0.21522555
102	0x3e2c7ed3	0.16845255
103	0x3dcbcf19	0.0995161
104	0xbda3d6af	-0.07999932
105	0x3d6539f8	0.055963486
106	0x3cc3c86e	0.023899283
107	0xbcbe27be	-0.02321231
108	0xbd9d8c8d	-0.076928236
109	0xbe8ae53b	-0.27128014
110	0x3e0cd50c	0.13753146
111	0x3ef34367	0.4751236
112	0x3be2fc74	0.0069270674
113	0xbd54f7f6	-0.051994286
114	0xbd99f449	-0.07517297
115	0xbdaedcee	-0.08538233
116	0x3d71320b	0.058885615
117	0xbc2f15eb	-0.010686378
118	0x3ac233bb	0.0014816442
119	0x3d495474	0.049152806
120	0x3dbbe586	0.091746375
121	0xbcdbe0c5	-0.026840577
122	0x3df7f60f	0.12107479
123	0x3d595bef	0.05306619
124	0x3df1641c	0.117866725
125	0x3df36e31	0.11886252
126	0xbd0f4a42	-0.034982927
127	0x3de0c2be	0.10974644
128	0x3ed5676c	0.41680467
129	0xbd60bbb2	-0.0548665
130	0x3bcb7d8e	0.0062100356
131	0x3d3afb25	0.045649666
132	0x3dcc1985	0.09965805
133	0xbe1c25d7	-0.1524881
134	0xbe55739f	-0.20844887
135	0x3ecc6d6b	0.3992723
136	0xbc51d926	-0.01280812
137	0xbe4fb511	-0.20283915
138	0x3eb7893a	0.35846883
139	0x3e380a2e	0.17972633
140	0x3ef66151	0.48121122
141	0x3e075415	0.13215668
142	0xbdb57ba2	-0.08861472
143	0xbe945f81	-0.28979114
144	0x3ec6df81	0.38842395
145	0xbd394abc	-0.045237288
146	0x3d493f65	0.049132723
147	0xbf1c3ac8	-0.61027193
148	0x3d7521d8	0.05984673
149	0x3cabb014	0.020957984
150	0xbd9a4e81	-0.07534505
151	0xbdc7f051	-0.097626336
152	0xbda5812b	-0.080812775
153	0x3cb1e302	0.021714691
154	0xbe2d83ac	-0.1694476
155	0xbad518f4	-0.0016258047
156	0xbe087aa8	-0.1332804
157	0x3bf35152	0.0074254656
158	0x3e90f192	0.28309304
159	0x3e9663fb	0.29373154
160	0x3d3e7a55	0.046503384
161	0xbd87e5fd	-0.06635664
162	0xbd1d3c26	-0.03838744
163	0xbdc11b88	-0.09429079
164	0x3d7d733f	0.061877485
165	0xbb427614	-0.002967243
166	0x3b89365e	0.0041873893
167	0xbabd1b6c	-0.0014427728
168	0xbd5df31f	-0.054186936
169	0x3cf1da40	0.029523015
170	0xbddad61f	-0.106853716
171	0x3d2b0325	0.041751046
172	0xbddef8ce	-0.108872995
173	0xbeb6e524	-0.35721695
174	0x3bbeec79	0.0058265296
175	0x3d88f986	0.06688218
176	0x3d030386	0.031985782
177	0x3c227406	0.009915357
178	0x3d4c4907	0.04987433
179	0xbd5f780e	-0.054557852
180	0xbe148fe7	-0.1450802
181	0xbe03d268	-0.12873232
182	0xbdb96a18	-0.09053439
183	0xbd21985b	-0.039451938
184	0x3c719978	0.014746062
185	0xbc9c7cf8	-0.019102558
186	0xbcd44f6b	-0.025916776
187	0x3c1f007e	0.009704707
188	0xbd069d60	-0.03286493
189	0xbcc01160	-0.023445785
190	0xbe13096b	-0.14359061
191	0x3ca4c58a	0.020113725
192	0x3d3d12d8	0.04616055
193	0xbb23f425	-0.0025017348
194	0x3f06d374	0.526664
195	0x3da9ed6e	0.08297239
196	0x3dfcc47a	0.123421624
197	0xbecc0d07	-0.3985369
198	0x3d234b4e	0.039866738
199	0xbef2025c	-0.47267425
200	0x3d852af4	0.06502333
201	0x3e0e78f3	0.13913326
202	0xbef4ac4a	-0.47787696
203	0x3eb7d06f	0.3590121
204	0x3e1c3816	0.1525577
205	0x3d2817ef	0.04103845
206	0xbe8b2483	-0.27176294
207	0x3e3934bc	0.18086523
208	0xbdb097d4	-0.08622709
209	0x3eacdb71	0.3376117
210	0x3fa3c542	1.2794573
211	0x3ed87b96	0.4228179
212	0x3e00de16	0.12584719
213	0x3dd011c9	0.10159642
214	0xbe68eaa3	-0.22745757
215	0x3e254377	0.16139017
216	0xbe216ad0	-0.15763402
217	0x3e510c57	0.20414864
218	0x3dcda300	0.100408554
219	0xbe789435	-0.24275286
220	0xbc0a8110	-0.008453622
221	0x3c9c120c	0.019051574
222	0x3e61e5eb	0.22060363
223	0xbe53b2f2	-0.20673731
224	0xbcbffc21	-0.023435654
225	0x3d89ded1	0.06731952
226	0x3d47c5ea	0.04877273
227	0x3c6549f2	0.013994681
228	0x3d9fd281	0.07803822
229	0xbd3a5067	-0.045486834
230	0x3d496626	0.049169682
231	0x3e2eebd4	0.17082149
232	0x3c51103f	0.012760221
233	0xbdd726fd	-0.10505483
234	0x3e0ebe8c	0.13939875
235	0xbdcc239c	-0.099677294
236	0x3dd60715	0.104505695
237	0xbd224298	-0.03961429
238	0xbc1deff6	-0.009639731
239	0x3e7285b1	0.23683812
240	0xbae3d0ab	-0.0017380913
241	0x3cf5d26f	0.03000757
242	0x3d43fcc1	0.047848467
243	0x3e0a1782	0.1348553
244	0xbd5f75f1	-0.054555837
245	0x3db7549f	0.08951687
246	0xbd31ec78	-0.043438405
247	0x3dab6c86	0.083703086
248	0xbd32acfc	-0.043622002
249	0x3da6faf3	0.081533335
250	0x3d2a4cd6	0.041577183
251	0xba5a17f8	-0.00083196117
252	0x3d151c3f	0.03640389
253	0x3d4a5be4	0.04940404
254	0x3e205a59	0.15659465
255	0x3a3d11e4	0.0007212444

bias f4 [512]
0	0xbd05e745	-0.03269126
1	0xbda638b5	-0.08116285
2	0xbe8125fd	-0.25224295
3	0x3d11f3a4	0.035632744
4	0xbca87586	-0.020563852
5	0xbe5ad88f	-0.21371673
6	0xbcc16d3d	-0.02361166
7	0xbdbcb156	-0.09213512
8	0xbc98b7a5	-0.018642256
9	0xbdb4ecc2	-0.088342205
10	0x3e2cbda4	0.16869217
11	0x3d2309a1	0.039804105
12	0xbe3b6f79	-0.18304242
13	0xbe65b36a	-0.22431722
14	0xbe5ae6f8	-0.2137717
15	0x3cba8e36	0.02277289
16	0xbe52d3eb	-0.20588653
17	0xbe025cfe	-0.12730786
18	0xbdac4e72	-0.084134
19	0xbd633b56	-0.05547651
20	0xbdc02117	-0.093813114
21	0x3d3591a1	0.044328336
22	0x3ddbe57d	0.10737131
23	0x3e22b2f6	0.1588858
24	0x3d5cd0ce	0.05391007
25	0xbd8829ae	-0.06648575
26	0xbc136144	-0.008995358
27	0xbd0f0b68	-0.034922987
28	0x3d1880bc	0.037232146
29	0xbd42c730	-0.04755324
30	0x3d125c9b	0.035732847
31	0xbd1bef3c	-0.03806995
32	0x3d86c490	0.0658046
33	0xbe212730	-0.15737605
34	0xbb2abbda	-0.002605191
35	0x3e832814	0.25616515
36	0x3e1f27e8	0.15542567
37	0x3dcc5807	0.099777274
38	0x3d08a0f7	0.033356633
39	0xbe1d493b	-0.15359966
40	0xbdea37d8	-0.114364326
41	0xbce97e8b	-0.028502723
42	0xbda2d3b6	-0.07950537
43	0xbe232daf	-0.15935396
44	0x3d9cbe75	0.07653514
45	0x3e65f9c5	0.22458561
46	0xbe08330a	-0.1330072
47	0xbe2fc03e	-0.17163178
48	0xbdf22920	-0.1182425
49	0xbe6f13d4	-0.23347408
50	0xbca286a3	-0.01983959
51	0xbdeb30c5	-0.114839114
52	0x3cfbc476	0.030733328
53	0xbbee4301	-0.007271171
54	0x3dae1bbc	0.08501384
55	0xbcc8bfba	-0.024505485
56	0xbe54595d	-0.20737214
57	0x3e005508	0.12532437
58	0xbdd8b1c2	-0.105807796
59	0x3c1c0b7a	0.009524221
60	0x3dd521a7	0.10406809
61	0xbdd7db16	-0.10539834
62	0x3db6c6e4	0.08924654
63	0xbdf4728e	-0.11935912
64	0xbd0e9c3a	-0.034816958
65	0x3d2d1aab	0.04226176
66	0xbc0ae829	-0.008478203
67	0x3dc50dee	0.096217975
68	0xbdf549c1	-0.11976958
69	0x3e14861d	0.14504285
70	0x3e2baf75	0.1676615
71	0x3d0e3c49	0.03472546
72	0x3df594e0	0.11991286
73	0x3d0bb722	0.034110196
74	0xbb5b749c	-0.0033486253
75	0xbdf37bf3	-0.11888876
76	0xbc630e7d	-0.013858435
77	0xbb848f05	-0.0040453696
78	0xbd8e9e49	-0.06963784
79	0xbd00a88e	-0.031410746
80	0x3cb979c0	0.022641063
81	0xbe594150	-0.21216321
82	0x3ccac341	0.024751307
83	0x3dac6df5	0.0841941
84	0xbe299031	-0.16558911
85	0x3e268017	0.162598
86	0x3d87a059	0.06622381
87	0xbab5c8c5	-0.0013869038
88	0xbda0c925	-0.07850865
89	0xbda7e118	-0.0819723
90	0xbe7634c8	-0.24043572
91	0xbde75aa1	-0.11296583
92	0x3d8357d5	0.06413237
93	0xbe8f4ada	-0.27986795
94	0xbd952d8d	-0.07284079
95	0x3d91ccd6	0.071191475
96	0x3bae178f	0.005312867
97	0x3db395aa	0.087687805
98	0x3bb3b558	0.0054842643
99	0x3da4d37a	0.080481485
100	0x3d8ae881	0.06782628
101	0xbd9cb955	-0.07652537
102	0xbd861810	-0.06547558
103	0xbd71ef7a	-0.059066273
104	0x3d8c065b	0.0683715
105	0x3d3758b8	0.044762343
106	0xbd9554c6	-0.0729156
107	0x3d7d5b99	0.061854932
108	0x3eadf378	0.33974814
109	0xbd89d1b5	-0.067294516
110	0xbc241517	-0.010014794
111	0x3d8465ad	0.064647056
112	0xbcfeb3cf	-0.031091599
113	0x3e043818	0.12912023
114	0xbe115cb4	-0.1419552
115	0x3cc04224	0.023469038
116	0xbe05c345	-0.1306277
117	0x3bc49224	0.0059988666
118	0xbc9ce2be	-0.019151088
119	0x3e05f748	0.13082612
120	0xbdcfffda	-0.10156222
121	0x3d9a24d1	0.075265534
122	0x3d122070	0.035675466
123	0xbd052198	-0.03250274
124	0xbe0a4ce9	-0.13505901
125	0x3e23faef	0.16013692
126	0xbc36e8fb	-0.011163945
127	0x3da7b7ea	0.08189376
128	0xbdfa62bc	-0.12225863
129	0x3b98f1f5	0.0046675154
130	0x3dcc7a19	0.09984226
131	0xbdc3c810	-0.09559643
132	0xbd0fead9	-0.035136078
133	0x3df6a4d6	0.12043159
134	0x3e903868	0.28168035
135	0x3e1b46d4	0.15163738
136	0xbd533b94	-0.05157049
137	0x3d26f942	0.040765055
138	0xbe393098	-0.18084943
139	0xbbb970bc	-0.005659191
140	0x3d8a3eb6	0.067502424
141	0x3de056bf	0.109540455
142	0xbe24b9ec	-0.16086549
143	0x3d43d92e	0.04781454
144	0xbdae94ee	-0.085245
145	0x3c883e38	0.01663123
146	0xbe88a19b	-0.26685795
147	0xbe8ac13e	-0.27100557
148	0xbcca934d	-0.024728442
149	0x3cee2b78	0.029073462
150	0x3dfe9418	0.124305904
151	0xbd8b915b	-0.06814834
152	0x3b80887e	0.003922521
153	0x3cfb54e9	0.030680137
154	0x3cb15e84	0.021651514
155	0x3e899264	0.268695
156	0xbe7b3bc5	-0.24534519
157	0xbe16e0eb	-0.14734237
158	0xbe7dbb55	-0.24778493
159	0x3e799f7b	0.24377243
160	0x3e27d34f	0.16389202
161	0x3deae611	0.11469663
162	0xbd826d11	-0.06368459
163	0x3c3642e5	0.011124347
164	0xbcb5ff55	-0.022216478
165	0xbd9d8848	-0.07692009
166	0xbdc524ed	-0.09626184
167	0x3e0e15c8	0.13875496
168	0x3d9ac8b1	0.0755781
169	0x3b261994	0.0025344836
170	0x3c4aa452	0.012368279
171	0x3d03ca63	0.032175433
172	0x3ca2f685	0.01989294
173	0xbdd3ba6e	-0.10338293
174	0xbd9c7f0a	-0.07641418
175	0x3df2a0dc	0.11847088
176	0xbdd100d0	-0.10205233
177	0xbe135844	-0.1438914
178	0x3cd9b987	0.026577724
179	0x3e094b2e	0.13407585
180	0x3d61ab02	0.055094726
181	0xbcc4bd33	-0.024015998
182	0x3d88ffb9	0.066894
183	0x3df23b44	0.1182771
184	0xbe16d0b7	-0.14728056
185	0x3e5a0fe7	0.21295129
186	0xbd307e50	-0.04308921
187	0xbe290c4f	-0.16508602
188	0x3d0510c3	0.03248669
189	0x3d031bd5	0.032008965
190	0xbe818e2b	-0.25303778
191	0xbd0572c0	-0.032580137
192	0x3c96d947	0.018414153
193	0x3d3fc277	0.046816316
194	0xbe0d9cb7	-0.13829313
195	0x3d229640	0.03969407
196	0xbe4b4856	-0.19851813
197	0x3d964a9b	0.073384486
198	0xbe323296	-0.1740211
199	0xbcde9da1	-0.027174773
200	0xbccba430	-0.024858564
201	0xbe0b4705	-0.1360131
202	0xbe6001ee	-0.21875736
203	0xbe475ba1	-0.19468547
204	0x3d9d3777	0.07676595
205	0x3c754c6a	0.014971832
206	0xbe8129e1	-0.25227264
207	0x3d192558	0.03738913
208	0x3cc3b1da	0.023888517
209	0x3dbf6754	0.0934588
210	0xbe7dc07e	-0.24780461
211	0xbd9e9de0	-0.07744956
212	0xbe5d5983	-0.21616177
213	0xbd905149	-0.07046754
214	0x3d211c02	0.03933335
215	0x3d04a273	0.032381486
216	0xbd4958bf	-0.0491569
217	0x3d6a5f9e	0.057220094
218	0xbe100955	-0.1406606
219	0xbaabbac4	-0.0013101925
220	0x3cb67343	0.022271758
221	0x3c826d9e	0.01592141
222	0xbd1ebfbb	-0.038757067
223	0xbe14bc82	-0.14525035
224	0xbd8ee5ef	-0.0697745
225	0xbd8e5c79	-0.069512315
226	0x3e213891	0.15744235
227	0xbcf4b63e	-0.029872056
228	0xbe3bf562	-0.18355325
229	0x3beb2452	0.0071759606
230	0x3d0d0046	0.03442409
231	0x3e204079	0.15649594
232	0x3d0f24ec	0.03494732
233	0x3d0274f9	0.031849835
234	0xbe0ad5e9	-0.13558163
235	0x3c432f95	0.0119132
236	0xbd8949ff	-0.06703567
237	0xbde51b0e	-0.11186801
238	0x3e249954	0.16074115
239	0x3d0fd32e	0.035113506
240	0xbcaf683a	-0.021412004
241	0xbdabfcf2	-0.08397855
242	0xbb1ae4e0	-0.0023634955
243	0xbe1553c7	-0.1458274
244	0xbd2f1100	-0.04274082
245	0xbc9c8ff9	-0.01911162
246	0x3d2a803f	0.04162621
247	0xbdde80b2	-0.108643904
248	0x3d14adf8	0.036298722
249	0xbdfb5551	-0.12272132
250	0x3e2c3e3f	0.1682062
251	0xbdf4d471	-0.119545825
252	0x3d0cc99c	0.034371957
253	0xbe6e2f56	-0.23260245
254	0x3df2ff8f	0.1186515
255	0xbdc113d6	-0.094276115

weight f4 [256, 512]
0	0x3da81269	0.082066365
1	0xbd70987f	-0.05873918
2	0x3e46c4f2	0.19411066
3	0x3d6eb955	0.058282215
4	0xbcfddd2c	-0.030989252
5	0x3e11083a	0.14163294
6	0xbd597aa0	-0.05309546
7	0x3b13c137	0.0022545585
8	0x3d9db8d4	0.07701269
9	0x3cff4e55	0.031165281
10	0x3c2199ee	0.00986336
11	0xbcf09a34	-0.029370405
12	0x3cf50da9	0.02991374
13	0x3b8113df	0.0039391364
14	0xbe003f1a	-0.12524071
15	0xbe00ee3b	-0.12590878
16	0xba71e56e	-0.0009227608
17	0x3d929021	0.07156397
18	0x3dd80a35	0.10548822
19	0x3d7dd160	0.061967254
20	0xbdf6e4a9	-0.12055332
21	0xbd2d87cb	-0.04236583
22	0xbcb7f9b4	-0.022457935
23	0xbd602113	-0.054719042
24	0x3bdd10fa	0.0067464085
25	0x3d3e1d68	0.046414763
26	0xbe07aea0	-0.13250208
27	0xbdd168f7	-0.102250986
28	0x3c030b9c	0.007998373
29	0x3bcc0698	0.006226372
30	0x3d72ac03	0.059246074
31	0x3e3dab56	0.1852239
32	0xbd524a5c	-0.051340446
33	0xbd26ac7d	-0.04069184
34	0xbd1a4cf8	-0.03767106
35	0x3cfac7f2	0.03061292
36	0xbe1e5eba	-0.15465823
37	0xbc942e65	-0.018088529
38	0x3e577798	0.21041715
39	0x3dbc2a35	0.09187738
40	0xbd5093e5	-0.050922293
41	0x3cd8b392	0.026452813
42	0xbe6fd9d7	-0.23422943
43	0x3de057bd	0.10954235
44	0xbdc1e60a	-0.094677046
45	0xbaed98bf	-0.0018127187
46	0xbbca36d5	-0.0061710873
47	0x3dff1bd3	0.12456479
48	0xbc1a7a97	-0.009428642
49	0x3cc3b79a	0.023891259
50	0x3d967963	0.073473714
51	0x3e0f6fc6	0.14007482
52	0x3e4ef3a8	0.20210135
53	0x3b9ff5d0	0.004881598
54	0xbe09a77d	-0.13442798
55	0x3d59efd0	0.05320722
56	0x3e201000	0.15631104
57	0x3d92adeb	0.071620785
58	0x3c20b45a	0.009808624
59	0xbd7c8532	-0.061650462
60	0xbba4f9a9	-0.0050346446
61	0x3d4f5b4f	0.050624188
62	0x3d8d2aea	0.06892951
63	0xbd57bb9e	-0.05266916
64	0xbe230616	-0.1592029
65	0xbde0eeec	-0.10983071
66	0x3d7fc4a0	0.062443376
67	0x3db40237	0.08789485
68	0x3dab59b6	0.083667204
69	0xbd9f2b0b	-0.07771882
70	0xbe3aed32	-0.18254545
71	0xbad0f94b	-0.0015943436
72	0x3de19112	0.11013998
73	0x3db0adea	0.086269215
74	0xbe6a08a7	-0.22854863
75	0x3e6c147d	0.2305469
76	0x3df507d1	0.119643815
77	0xbd4d607d	-0.050140847
78	0x3d1730bc	0.03691171
79	0x3da1b5c9	0.07896001
80	0xbcf464ba	-0.029833186
81	0x3e28e868	0.16494906
82	0xbd90c188	-0.07068163
83	0x3dc12be6	0.09432201
84	0xbd8833c5	-0.06650499
85	0xbdea874b	-0.11451586
86	0xbc805108	-0.015663639
87	0xbd0cd946	-0.034386896
88	0x3e2d3aa7	0.16916905
89	0x3d7cef53	0.061751675
90	0x3e54d9db	0.2078623
91	0x3da0539f	0.078284495
92	0xbcf4e780	-0.029895544
93	0x3d0be630	0.03415507
94	0x3ca3d29e	0.019997891
95	0xbe126f65	-0.14300306
96	0x3df48164	0.11938742
97	0xbde447da	-0.11146517
98	0xbb296080	-0.0025844872
99	0x3d1045cf	0.035222825
100	0xbd49887f	-0.04920244
101	0x3ad0c003	0.0015926365
102	0x3d4ed9b2	0.05050058
103	0xbd4cc1d8	-0.04998955
104	0xbde4b791	-0.11167825
105	0xbdc04d00	-0.093896866
106	0x3d46c89b	0.048531156
107	0x3cec5975	0.02885125
108	0xbcebc00c	-0.028778099
109	0xbe8564be	-0.26053423
110	0xbe2539ab	-0.1613528
111	0xbe16c87f	-0.1472492
112	0xbd5c78d8	-0.053826183
113	0xbda638f7	-0.08116334
114	0x3c819f94	0.015823163
115	0xbb852ef5	-0.0040644356
116	0x3dc894e8	0.097940266
117	0x3d914d9c	0.07094881
118	0xbd89e122	-0.06732394
119	0xbe2819c2	-0.16416076
120	0x3d92ae5e	0.07162164
121	0x3db0bc75	0.08629695
122	0x3d9c61e2	0.07635857
123	0x3d85cb8b	0.06532963
124	0xbd1678ab	-0.03673617
125	0x3e4f8314	0.20264846
126	0xbd0821e8	-0.03323546
127	0xbccdf704	-0.0251422
128	0xbda11655	-0.078655876
129	0x3cb8d76f	0.022563664
130	0xbdbbe247	-0.09174018
131	0xbdc10393	-0.0942451
132	0x3cf8be4f	0.030364184
133	0xbdc3fab3	-0.095693015
134	0x3da2733d	0.07932136
135	0xbd6fa796	-0.05850943
136	0x3ad05ef2	0.0015897437
137	0xbc194d92	-0.009356873
138	0xbba5ccf0	-0.005059831
139	0x3cd8eb3d	0.026479358
140	0xbe265141	-0.16241933
141	0xbe09bffc	-0.13452142
142	0xbe431dd0	-0.19054341
143	0xbe4238ac	-0.18966931
144	0x3d973ddc	0.073848456
145	0xbe10a8d8	-0.14126909
146	0x3daf4bc1	0.08559371
147	0x3dc8ec86	0.09810738
148	0xbdcc3458	-0.09970921
149	0x3ce2abb3	0.027669763
150	0xbea4c8ce	-0.32184452
151	0x3d8d8f8c	0.06912145
152	0x3ddd04cc	0.107919306
153	0xbc6b61a4	-0.014366541
154	0x3e69407b	0.22778504
155	0xbdae867b	-0.08521744
156	0x3dfbb630	0.12290609
157	0x3d909037	0.07058757
158	0x3daeb2ab	0.08530172
159	0xbd1631b8	-0.03666851
160	0xbdd5a951	-0.10432685
161	0xbd575271	-0.052568857
162	0x3d8e23cc	0.069404215
163	0x3ca86dd1	0.020560177
164	0x3d8cdfdb	0.068786345
165	0xbd0f6da7	-0.035016682
166	0xbe9d4b95	-0.30721727
167	0xbe629548	-0.22127259
168	0xbdc55950	-0.09636176
169	0x3c84462f	0.016146747
170	0xbd811db8	-0.063044965
171	0xbd0c8d82	-0.03431464
172	0xbda2553c	-0.079264134
173	0xbdf6313c	-0.120211095
174	0x3dedebba	0.11617227
175	0xbe3ea97f	-0.18619345
176	0xbe965e15	-0.29368654
177	0x3e04cc58	0.12968576
178	0xbc2d854f	-0.010590865
179	0x3d94c68f	0.072644345
180	0xbe196b37	-0.14982305
181	0xbd921ad7	-0.071340255
182	0xbe3b2603	-0.18276219
183	0x3d875e46	0.06609778
184	0x3e2d1d6f	0.1690576
185	0xbe1bd7b8	-0.15219009
186	0xbde0255e	-0.10944627
187	0x3db97bc0	0.090568066
188	0xbe57abe2	-0.21061662
189	0x3e98ed7a	0.2986868
190	0x3e13629a	0.14393082
191	0x3e88ec48	0.26742768
192	0xbc559f1d	-0.013038424
193	0x3dfa8d39	0.12233967
194	0xbbc26f17	-0.005933653
195	0x3dd5560e	0.10416804
196	0x3d37ad1d	0.044842828
197	0x3d2e61eb	0.04257385
198	0x3e3fe9f7	0.18741594
199	0xbe477b32	-0.19480589
200	0x3c030725	0.007997309
201	0x3e753f7c	0.23949999
202	0xbd18d9dc	-0.037317142
203	0x3e370f59	0.17876948
204	0x3d6e684c	0.058204934
205	0x3cd16950	0.025562912
206	0xbd228ec5	-0.039686937
207	0xbe02886f	-0.12747358
208	0x3e005f3f	0.12536334
209	0xbe3ecb7b	-0.18632309
210	0x3c29ff4f	0.010375812
211	0xbe08dded	-0.13365908
212	0xbe82d5fe	-0.25553888
213	0xbd1b5cea	-0.037930407
214	0xbda94fa1	-0.08267141
215	0xbd943a3a	-0.07237668
216	0x3e42da91	0.19028689
217	0x3dd194ef	0.10233485
218	0xbd9a9c27	-0.07549315
219	0xbe014414	-0.12623626
220	0x3ce55c5d	0.027998144
221	0xbe166c2a	-0.14689699
222	0xbee149d9	-0.44001654
223	0x3cddd623	0.027079647
224	0x3d5c88b2	0.0538413
225	0xbd1f518e	-0.038896136
226	0x3d9645ec	0.07337555
227	0x3db98708	0.09058958
228	0xbd051391	-0.032489363
229	0x3d0a724f	0.03380042
230	0x3de7df49	0.11321885
231	0xbcb3e775	-0.021960953
232	0x3caac0f5	0.020843962
233	0xbd0e05bf	-0.03467345
234	0xbda432cd	-0.08017502
235	0xbe98bd5d	-0.29831973
236	0x3d0226cb	0.031775277
237	0x3ddacdfc	0.1068382
238	0x3ccd6fc8	0.025077716
239	0x3d0001c5	0.031251688
240	0xbbb8eb3e	-0.0056432774
241	0x3acb3a5a	0.0015505061
242	0xbe0a3e00	-0.13500214
243	0x3c303a0c	0.010756027
244	0xbdbc42d6	-0.091924354
245	0xbc8f7b49	-0.017514842
246	0xbd33956d	-0.043843675
247	0x3dc67590	0.09690392
248	0x3d85ae96	0.0652744
249	0x3cf0123e	0.029305574
250	0xbdf9269f	-0.121655695
251	0x3d67e393	0.056613516
252	0x3cf1be8f	0.02950981
253	0x3dcdabaa	0.10042508
254	0xbdd8c338	-0.1058411
255	0x3d73c428	0.05951324

bias f4 [256]
0	0xbe394c34	-0.18095475
1	0xbdb40f25	-0.08791951
2	0xbe62de73	-0.2215517
3	0xbdb94adb	-0.09047481
4	0xbe1e325b	-0.15448897
5	0xbc9fa948	-0.0194899
6	0xbe2132d8	-0.15742052
7	0x3c840c7f	0.01611924
8	0xbe214e35	-0.1575249
9	0xbe52f31e	-0.20600554
10	0xbe384bdc	-0.17997688
11	0xbdd717dd	-0.105025984
12	0xbb4f5586	-0.003163667
13	0xbcfa0b61	-0.030523004
14	0xbe57ad22	-0.21062139
15	0xbd3284fb	-0.04358385
16	0xbe4c322a	-0.19941011
17	0xbdb775a8	-0.08957988
18	0xbe27fe0e	-0.16405508
19	0xbdbcaad4	-0.092122704
20	0x3c2a98c3	0.010412398
21	0xbc76176e	-0.0150202345
22	0xbe529315	-0.2056392
23	0xbe836182	-0.2566033
24	0x3c36ee53	0.011165219
25	0xbdc26ed4	-0.09493795
26	0xbe6f57ac	-0.23373288
27	0x3c4fcdab	0.012683312
28	0xbecc1e3f	-0.39866826
29	0xbe59591f	-0.21225403
30	0xbc59ea74	-0.013300527
31	0xbe00c49b	-0.12574999
32	0xbde26338	-0.11054081
33	0xbd7773df	-0.060413238
34	0xbded4604	-0.1158562
35	0xbd4ee452	-0.050510712
36	0xbea37093	-0.31921825
37	0xbd371452	-0.044697113
38	0xbd9dbb7a	-0.07701774
39	0xbe71c6e3	-0.23611026
40	0xbdd253c3	-0.102698825
41	0xbe2f7000	-0.17132568
42	0xbe1d4640	-0.1535883
43	0xbe5c641e	-0.21522567
44	0xbe15a3ef	-0.14613317
45	0xbe0bbdda	-0.13646641
46	0xbbb345ab	-0.0054709516
47	0xbdebdb47	-0.11516433
48	0xbe25abef	-0.16178869
49	0xbe05df36	-0.1307343
50	0xbe27a310	-0.16370797
51	0xbccf124f	-0.025277285
52	0xbdbf94f1	-0.0935458
53	0xbd471439	-0.04860327
54	0xbdbaee84	-0.091275245
55	0xbdac73aa	-0.08420499
56	0xbe2901fd	-0.16504665
57	0xbe66cffb	-0.22540276
58	0xbe3fd11a	-0.1873211
59	0xbe6f1e4e	-0.23351404
60	0xbe0bcaaf	-0.13651536
61	0xbe484d09	-0.19560637
62	0xbe3c0862	-0.18362573
63	0xbdf1a3b9	-0.11798806
64	0xbdf521aa	-0.119693115
65	0x3ce46c7f	0.027883766
66	0xbe0d5352	-0.13801315
67	0xbdab66c3	-0.083692096
68	0xbda56446	-0.08075766
69	0xbe4b1133	-0.1983078
70	0xbce22496	-0.027605336
71	0xbd2e8b1b	-0.04261313
72	0xbe369d45	-0.17833431
73	0xbdf80a3a	-0.121113256
74	0xbe9846bf	-0.29741475
75	0xbe0699af	-0.13144563
76	0xbd81ce8f	-0.06338226
77	0xbdac1089	-0.08401591
78	0xbeb54d08	-0.35410333
79	0xbdad3ebd	-0.08459232
80	0xbe145146	-0.14484128
81	0x3dcc0641	0.0996213
82	0xbd893389	-0.06699283
83	0xbd4bc8e5	-0.049752135
84	0xbc1c0a44	-0.009523932
85	0xbd43940a	-0.047748603
86	0xbe088a2e	-0.13333961
87	0xbdc2c7e8	-0.09510785
88	0xbdb27710	-0.087141156
89	0xbce9bf25	-0.028533528
90	0xbd50ec35	-0.051006515
91	0x3b937b21	0.004500762
92	0xbe3c5b38	-0.18394172
93	0xbe0a9da1	-0.13536693
94	0xbe4aeaf3	-0.19816189
95	0xbe4827bc	-0.19546407
96	0xbdf6d6dc	-0.120527
97	0xbe54e629	-0.20790924
98	0xbde34c9e	-0.11098598
99	0xbd9ac71b	-0.075575076
100	0xbe9437c9	-0.2894881
101	0xbe66049c	-0.22462696
102	0xbdb65801	-0.08903504
103	0xbd370ab0	-0.044687927
104	0xbd80449e	-0.06263088
105	0xbdefddd6	-0.11712234
106	0xbe46dc8b	-0.19420068
107	0xbdd24fc0	-0.10269117
108	0xbdb92e04	-0.0904198
109	0xbdd4ac29	-0.103843994
110	0xbeea90ea	-0.45813686
111	0xbd2bf105	-0.0419779
112	0xbe0cd622	-0.1375356
113	0xbe46a69c	-0.19399494
114	0xbc2b6efe	-0.010463474
115	0xbd3f8f72	-0.04676766
116	0xbdadc28e	-0.08484374
117	0xbd33042d	-0.043705154
118	0xbe5118bc	-0.20419592
119	0xbda27a49	-0.0793348
120	0xbe1eb152	-0.1549733
121	0x3c97c0c3	0.018524533
122	0xbdad945f	-0.08475565
123	0xbddbcadf	-0.10732054
124	0xbee288e9	-0.4424508
125	0xbd4651c2	-0.048417814
126	0xbe229e43	-0.15880685
127	0x3d5c0243	0.053713094
128	0xbcab7e35	-0.020934204
129	0xbd3a0b44	-0.0454209
130	0xbeb8eea9	-0.36119583
131	0xbed68b83	-0.41903314
132	0xbdcfc4fa	-0.10144992
133	0x3cc1a46c	0.023637973
134	0xbe175f73	-0.14782505
135	0xbdadeb5d	-0.084921576
136	0xbcdba408	-0.026811615
137	0xbda058c9	-0.078294344
138	0xbd9a4b1f	-0.075338595
139	0x3ce0397b	0.027371159
140	0xbd7caf0e	-0.061690383
141	0xbe938c38	-0.28817916
142	0xbdd1c1ca	-0.102420405
143	0xbd9bbe88	-0.076047
144	0xbe2efc22	-0.17088369
145	0x3be5041e	0.006989016
146	0xbcf078e3	-0.029354518
147	0xbdbba34d	-0.091620065
148	0xbd0d21e0	-0.034456134
149	0xbc2c217c	-0.01050603
150	0xbcfb5dc3	-0.030684358
151	0xbe3ffb34	-0.1874817
152	0xbcb7f389	-0.022454994
153	0xbd659447	-0.05604961
154	0xbca756b3	-0.020427084
155	0xbc60f037	-0.013729147
156	0xbdbddfa0	-0.09271169
157	0xbe01e546	-0.12685117
158	0xbe850c95	-0.25986162
159	0xbe5f2710	-0.21792245
160	0xbe7b99e4	-0.24570423
161	0xbe06fbdb	-0.13182013
162	0xbdec305a	-0.1153266
163	0xbd295a23	-0.041345727
164	0xbdfb8316	-0.12280862
165	0xbe1a0686	-0.15041551
166	0xbcb886d7	-0.022525234
167	0xbdfcdac4	-0.12346414
168	0xbd83d579	-0.06437201
169	0xbe288ce5	-0.16459997
170	0xbdf71b01	-0.120656975
171	0xbe295973	-0.16538028
172	0x3c952212	0.018204723
173	0xbe364a64	-0.17801815
174	0xbeabbfe7	-0.33544847
175	0xbe0e2099	-0.13879623
176	0xbe0edbf8	-0.13951099
177	0xbe02108d	-0.12701626
178	0xbe78a557	-0.24281822
179	0xbe282059	-0.1641859
180	0xbe6b314c	-0.22968024
181	0xbe587ed0	-0.21142125
182	0xbe4f307a	-0.20233336
183	0xbdb3c5ee	-0.087779865
184	0xbc0deff6	-0.008663168
185	0x3d2a47de	0.041572444
186	0xbe2c24ff	-0.16810988
187	0xbe468477	-0.19386469
188	0xbd9b19d2	-0.07573284
189	0xbda8522f	-0.082188
190	0xbe3347cb	-0.17507856
191	0xbb8af554	-0.004240671
192	0xbe333e89	-0.17504324
193	0xbd786673	-0.06064458
194	0x3dae88af	0.08522164
195	0xbe95fa73	-0.2929264
196	0xbdfa569e	-0.12223552
197	0xbdf6722e	-0.12033497
198	0xbe29652d	-0.16542502
199	0xbe48d59e	-0.19612738
200	0xbe129b34	-0.14317018
201	0xbd430dab	-0.047620457
202	0xbe1051a8	-0.1409365
203	0xbe8969ea	-0.2683862
204	0xbe22aba8	-0.15885794
205	0xbe257c19	-0.16160621
206	0xbda44980	-0.080218315
207	0xbe2e9109	-0.17047514
208	0xbe24dbac	-0.16099423
209	0xbd85f7d5	-0.06541411
210	0xbd7c4846	-0.061592363
211	0xbe768a9c	-0.24076313
212	0xbd9ea389	-0.077460356
213	0xbe971b3b	-0.29512963
214	0xbdc17414	-0.09445968
215	0xbeac1bb1	-0.33614877
216	0xbe077a86	-0.13230333
217	0xbe7aef25	-0.24505289
218	0xbe69bf1e	-0.22826812
219	0xbe755243	-0.23957162
220	0xbd66cf82	-0.05635024
221	0xbd7a7aa1	-0.061152104
222	0xbe06720a	-0.1312944
223	0xbdaf3bc1	-0.08556319
224	0xbca11814	-0.019664802
225	0xbe2ae742	-0.1668978
226	0xbd6519e7	-0.055932906
227	0xbe926c7b	-0.2859839
228	0xbd9e2234	-0.077213675
229	0x3c8d8dae	0.017279472
230	0xbe241d25	-0.16026743
231	0xbe63b6e2	-0.22237733
232	0xbec062d4	-0.375754
233	0xbe0e118f	-0.13873886
234	0xbe851659	-0.25993612
235	0xbdb41c34	-0.08794442
236	0xbdea5eb2	-0.11443843
237	0xbe49c68b	-0.19704644
238	0xbcd5569d	-0.026042277
239	0xbe8671cd	-0.26258698
240	0xbe2ff7c7	-0.17184363
241	0xbe2e5cf7	-0.17027651
242	0xbea02772	-0.31280094
243	0xbd0d3df0	-0.034482896
244	0xbe769f58	-0.24084222
245	0xbb46a9ca	-0.0030313605
246	0xbe099873	-0.13437061
247	0xbe0db977	-0.1384028
248	0xbe34f2a7	-0.1767069
249	0xbeb4c722	-0.35308176
250	0xb98f823b	-0.00027372115
251	0xbe1cd9e5	-0.15317495
252	0xbdc90e4a	-0.098171785
253	0xbe9e3b32	-0.30904537
254	0xbe04a0f6	-0.12952027
255	0xbda1d1db	-0.07901355

weight f4 [128, 256]
0	0x3c0e5f82	0.008689763
1	0x3d73d859	0.059532497
2	0x3df76cd5	0.12081305
3	0xbe0e0f70	-0.13873076
4	0x3c7278dc	0.014799323
5	0xbd7880c2	-0.060669668
6	0xbd8acc6b	-0.06777271
7	0xbd05e42f	-0.032688316
8	0x3d44b624	0.048025265
9	0x3c208bae	0.009798927
10	0x3d4aeb63	0.04954089
11	0xbe088b44	-0.13334376
12	0x3d7550aa	0.05989138
13	0xbcbfa8ad	-0.02339586
14	0x3bfaa186	0.0076486496
15	0x3d7417a9	0.059592877
16	0x3e1b0468	0.151384
17	0xbddeb4a1	-0.10874296
18	0x3e14f186	0.14545259
19	0x3d02cff6	0.03193661
20	0x3cc5d1ec	0.02414795
21	0xbe0acd67	-0.13554917
22	0xbe57430f	-0.21021675
23	0x3da04a99	0.078267284
24	0xbce511b8	-0.02796255
25	0xbe1accd6	-0.15117201
26	0x3e014546	0.12624082
27	0x3e12dbbc	0.14341635
28	0x3dfd7e0c	0.12377557
29	0xbc1d6ea9	-0.009608903
30	0x3e162e55	0.14666112
31	0x3def604e	0.116882905
32	0x3b4bf1db	0.00311195
33	0xbd65c210	-0.056093276
34	0x3cbe23ed	0.02321049
35	0x3d833a03	0.06407549
36	0x3e28a371	0.16468598
37	0xbdde4f8b	-0.10855015
38	0x3d231d82	0.039823063
39	0x3da60c80	0.08107853
40	0x3ccafac0	0.02477777
41	0xbe19b8ee	-0.15011951
42	0xbcf3795f	-0.02972096
43	0x3ea489bf	0.32136342
44	0xba74453c	-0.0009318178
45	0xbe1aa32e	-0.1510131
46	0x3c0801ab	0.008301179
47	0x3d828ada	0.0637414
48	0x3c937513	0.018000161
49	0x3dbcb45a	0.09214087
50	0xbcd34b1d	-0.025792653
51	0x3d850024	0.064941674
52	0xbda22ebc	-0.0791907
53	0xbbfa4ebf	-0.007638782
54	0x3d7b2f56	0.06132444
55	0x3d9841d1	0.074344285
56	0x3ae6d715	0.0017611707
57	0x3e38b734	0.18038636
58	0x3d905169	0.07046778
59	0x3ce3ab8f	0.027791766
60	0xbe228b13	-0.15873365
61	0xbd06b476	-0.032886945
62	0x3cf9b31b	0.030480912
63	0x3d8f682e	0.070022926
64	0x3d075c82	0.033047207
65	0xbd1f9f66	-0.038970374
66	0xbd0dbbec	-0.034603044
67	0x3ceb2328	0.028703287
68	0x3dc198bc	0.0945296
69	0x3d0ef7df	0.034904357
70	0xbd406ea6	-0.046980523
71	0x3d94dac7	0.07268291
72	0x3bb6711a	0.005567682
73	0xbd8cbcd1	-0.06871951
74	0x3e45269a	0.19253007
75	0xbdb82ea2	-0.089932695
76	0x3cc6ded7	0.02427618
77	0x3e001939	0.12509622
78	0x3cb59a52	0.022168312
79	0xbde107ce	-0.10987817
80	0x3d285a8b	0.041101974
81	0xbdf788de	-0.12086652
82	0xbe42d0b2	-0.19024923
83	0x3e19d04b	0.15020864
84	0xbdc52e81	-0.096280105
85	0xbe005293	-0.125315
86	0xbd40fc1b	-0.047115427
87	0xbd889c93	-0.06670489
88	0xbe064dcc	-0.13115615
89	0x3d2ef345	0.04271247
90	0xbda0f01b	-0.078582965
91	0x3cc44329	0.023957806
92	0x3db92cd5	0.09041754
93	0xbe1e8a83	-0.15482526
94	0x3c8510d5	0.016243378
95	0x3dafe222	0.08588053
96	0x3ded7154	0.11593881
97	0xbb9f5b0e	-0.0048631495
98	0xbccffb25	-0.02538831
99	0xbd177a8a	-0.036982097
100	0x3ea8abf5	0.32943693
101	0x3dfa0926	0.12208776
102	0xbe0f7415	-0.14009126
103	0xbdd6d3aa	-0.104895905
104	0x3c1cb4a1	0.00956455
105	0x3d19b33d	0.03752445
106	0x3dc8e9fe	0.098102555
107	0x3d00c874	0.031441167
108	0xbd70997c	-0.058740124
109	0x3b5477f0	0.003242012
110	0x3d61e274	0.055147603
111	0xbdd72054	-0.10504213
112	0xbe33f09c	-0.17572254
113	0xbdbf7b7e	-0.09349726
114	0x3e09aa66	0.13443908
115	0x3e225d65	0.1585594
116	0xbd41da74	-0.047327474
117	0x3d866386	0.06561951
118	0x3b9025da	0.0043990435
119	0x3d7b489f	0.061348554
120	0x3dd8e29b	0.105900966
121	0x3c3983ea	0.011322955
122	0xbd8e00b0	-0.06933725
123	0xbde7818d	-0.11304007
124	0xbda07145	-0.078341044
125	0xbde8648b	-0.11347302
126	0x3c0b61e4	0.008507226
127	0x3d4fc486	0.05072453
128	0xbd0a8496	-0.03381785
129	0xbd91ec40	-0.07125139
130	0xbe0e5845	-0.1390086
131	0x3e12fa0c	0.14353198
132	0x3d80c997	0.0628845
133	0xbc7c8980	-0.015413642
134	0x3dcca74e	0.09992848
135	0x3ac443c9	0.0014973815
136	0xbe2c7147	-0.16840087
137	0xbe28e65d	-0.16494127
138	0x3e3dd368	0.18537676
139	0x3aebcd1c	0.0017990205
140	0xbd59700c	-0.05308537
141	0x3c8098f4	0.015697934
142	0x3c286079	0.010276907
143	0xbe41d578	-0.18929088
144	0xbdbfb1ef	-0.0936011
145	0xbe1a23e3	-0.15052752
146	0x3cc7f54a	0.024408955
147	0xbdf1d15f	-0.118075125
148	0x3d705310	0.058672965
149	0xbd2d789c	-0.04235135
150	0xbd37231c	-0.044711217
151	0xbde99eb9	-0.11407227
152	0xbd95d47d	-0.073159195
153	0xbe43f3d5	-0.19135983
154	0xbd536fd6	-0.051620327
155	0x3d4a75a4	0.049428597
156	0x3e05a219	0.13050117
157	0x3cf2e783	0.029651409
158	0xbddd3b65	-0.10802344
159	0x3bf4afd9	0.0074672517
160	0x3d96b57c	0.07358834
161	0xbdaebe73	-0.08532419
162	0x3e00ef19	0.12591209
163	0x3d9e3c81	0.07726384
164	0xbe14a7a6	-0.14517078
165	0x3a65a965	0.00087608985
166	0x3d489566	0.048970602
167	0x3d370a7e	0.04468774
168	0xbd60998c	-0.054833934
169	0x3bdada7b	0.006678877
170	0x3dc82da2	0.09774329
171	0x3dd96d1d	0.10616515
172	0xbda40ea4	-0.08010605
173	0x3dfbb9cb	0.122912966
174	0xbd01c1d2	-0.031678982
175	0xbd91aadf	-0.07112669
176	0xbe2e34d2	-0.17012337
177	0xbb5b16ea	-0.0033430406
178	0xbb00d6f6	-0.0019659377
179	0x3b6ac048	0.0035820175
180	0xbd36b215	-0.044603426
181	0xbb879dcc	-0.004138684
182	0xbd8d23ba	-0.0689158
183	0xbd3fa8ea	-0.04679195
184	0xbd1fd7f4	-0.03902431
185	0xbda560d7	-0.08075111
186	0x3e1a6ac4	0.1507979
187	0xbdd10693	-0.10206332
188	0x3d143738	0.036185473
189	0xbd2c7a4a	-0.04210881
190	0x3e31f997	0.17380367
191	0xbc0f4f5a	-0.008746946
192	0xbe1d662b	-0.15371005
193	0x3d8fb0e2	0.070161596
194	0xbda2f43a	-0.07956739
195	0xbcaf93bf	-0.021432756
196	0x3a93f5f7	0.0011288513
197	0xbc75ec70	-0.015009984
198	0xbd1f2a3e	-0.038858645
199	0x3dc805e2	0.09766747
200	0xbe13c83f	-0.14431857
201	0xbd924ec8	-0.071439326
202	0x3d2540af	0.04034489
203	0xbd0cdb34	-0.034388736
204	0xbda875b8	-0.08225578
205	0x3d84f955	0.06492869
206	0x3d54a96d	0.05191939
207	0x3d1fe03b	0.039032202
208	0x3d09375e	0.033500068
209	0x3ddecaf5	0.10878555
210	0xbd9fbad5	-0.07799307
211	0x3c661918	0.014044069
212	0xbe13c71a	-0.1443142
213	0x3e2c60d7	0.16833816
214	0xbdc649b3	-0.09682026
215	0xbddb196e	-0.1069821
216	0x3c98a7f2	0.01863477
217	0x3dbf42c8	0.093389094
218	0x3dadb77c	0.084822625
219	0x3d0298a6	0.03188386
220	0x3dff12a9	0.12454731
221	0x3e2c7747	0.16842376
222	0x3d807d39	0.06273884
223	0x3caf9873	0.021434998
224	0x3c1b807e	0.009491084
225	0x3e18db35	0.14927371
226	0xbd876f93	-0.06613078
227	0x3e814df7	0.25254795
228	0x3d14e7f8	0.036354035
229	0x3d94d245	0.07266668
230	0xbd4a8735	-0.04944535
231	0x3dfcc528	0.12342292
232	0xbd501170	-0.05079788
233	0x3cd57aa2	0.026059452
234	0x3da10bb9	0.07863564
235	0xbcf33600	-0.029688835
236	0x3cfb004b	0.030639788
237	0x3d80712e	0.06271587
238	0xbd722ea5	-0.059126515
239	0xbb5198fc	-0.0031982055
240	0x3e101e56	0.14074072
241	0x3d050d21	0.032483224
242	0x3dbcfb2f	0.09227597
243	0xbd4d0791	-0.050056044
244	0x3e1876c3	0.14889054
245	0x3d614e51	0.05500633
246	0xbd6b5cf4	-0.057461694
247	0xbd87c9d2	-0.06630291
248	0x3ddb19ee	0.10698305
249	0x3cecb928	0.028896883
250	0xbcd20bb6	-0.02564035
251	0x3dd3dc3f	0.10344743
252	0xbdf53d71	-0.1197461
253	0xbd04bd01	-0.03240681
254	0xbc12df06	-0.008964306
255	0xbd812b40	-0.063070774

bias f4 [128]
0	0xbdef4b6b	-0.11684307
1	0xbca01914	-0.019543208
2	0xbdb1ec2e	-0.08687626
3	0xbd1ab54a	-0.037770547
4	0xbecc6654	-0.3992182
5	0xbd98d913	-0.074632786
6	0xbe00c5d8	-0.12575471
7	0xbbb7be2a	-0.005607386
8	0xbe070123	-0.13184027
9	0xbd695237	-0.05696317
10	0xbe91aaa7	-0.2845051
11	0xbdbd15dd	-0.09232686
12	0xbdd4c9fc	-0.10390088
13	0x3ca98484	0.020693071
14	0xbda4cba4	-0.08046654
15	0xbd9b872c	-0.07594141
16	0xbc41f21f	-0.011837511
17	0xbe2091cf	-0.15680622
18	0xbea3d4f2	-0.31998402
19	0x3a41433e	0.00073723856
20	0xbe85cc7a	-0.26132566
21	0xbcf211d3	-0.029549515
22	0xbd2d5bce	-0.04232388
23	0x3c52d24c	0.0128675215
24	0xbd6e7410	-0.058216155
25	0xbdbc2b58	-0.09187955
26	0xbe041637	-0.128991
27	0xbdf77bc8	-0.12084156
28	0xbd3b3deb	-0.045713346
29	0xbdd96ae1	-0.10616089
30	0xbda6b392	-0.08139719
31	0xbe011d0a	-0.12608734
32	0xbd3faaaf	-0.046793636
33	0xbd5436d7	-0.05181011
34	0xbec18bf2	-0.37802082
35	0xbdc25a97	-0.09489935
36	0xbe376b4b	-0.17912023
37	0xbe69f960	-0.22849035
38	0xbddf4661	-0.109020956
39	0xbe07b8f1	-0.13254143
40	0xbcd39eda	-0.025832582
41	0xbe0fe329	-0.14051498
42	0xbda54a64	-0.080708295
43	0xbe80c4ff	-0.25150296
44	0xbda8575b	-0.08219787
45	0xbd40b8f8	-0.0470514
46	0xbe8a1d4b	-0.26975474
47	0xbddce2c2	-0.10785438
48	0xbd9852c2	-0.0743766
49	0xbdda4bd4	-0.10658994
50	0xbe40b013	-0.18817167
51	0xbdab9aea	-0.08379157
52	0xbe3dd33c	-0.18537611
53	0xbdb406d9	-0.087903686
54	0xbd2d6a67	-0.0423378
55	0xbdab07be	-0.08351086
56	0xbe5c20ed	-0.21496935
57	0x3d32079e	0.043464296
58	0xbe010e9f	-0.12603234
59	0xbe833013	-0.25622615
60	0xbca1b496	-0.01973943
61	0xbcf6f836	-0.030147653
62	0xbe4840b7	-0.19555937
63	0xbe381f9f	-0.17980812
64	0xbf43f743	-0.76549166
65	0xbe4dae86	-0.20086107
66	0xbdad63af	-0.08466279
67	0xbe0c2b5c	-0.13688415
68	0xbddb91f4	-0.10721198
69	0xbe0c302a	-0.13690248
70	0xbd3aa83c	-0.045570597
71	0xbd83cb8f	-0.0643531
72	0xbdb7abe1	-0.0896833
73	0x3d7f1a20	0.062280774
74	0xbea22bfe	-0.31674188
75	0xbd07df9f	-0.033172246
76	0xbdc3c7e5	-0.09559611
77	0xbe625ebd	-0.22106452
78	0xbc915a84	-0.017743357
79	0xbe1fd49f	-0.15608452
80	0xbd1ef663	-0.03880919
81	0xbd5a83b3	-0.053348254
82	0x3d2e102a	0.042495884
83	0xbc2677fd	-0.010160443
84	0xbdecb76e	-0.11558424
85	0xbd5d2696	-0.053991877
86	0xbd5ba132	-0.053620525
87	0xbe3cda68	-0.1844269
88	0xbe91df7b	-0.28490815
89	0xbd229a58	-0.039697975
90	0xbd8dcc40	-0.06923723
91	0xbdcb4583	-0.09925368
92	0xbded1993	-0.115771435
93	0xbde37bb3	-0.11107578
94	0xbd9c77c5	-0.07640032
95	0xbd7a5278	-0.061113805
96	0xbd13409f	-0.0359503
97	0x3c4106ad	0.011781377
98	0xbe0d996b	-0.13828056
99	0xbe05c1c2	-0.13062194
100	0xbd705ec7	-0.058684137
101	0xbdb8b23d	-0.09018371
102	0xbe1f1387	-0.15534793
103	0xbc91f211	-0.017815622
104	0xbde2cd2f	-0.11074292
105	0xbdd4f46e	-0.10398184
106	0xbdc9ed63	-0.09859731
107	0xbe3aad7c	-0.18230242
108	0xbdade968	-0.08491784
109	0xbe4f3b77	-0.20237528
110	0xbcb61889	-0.022228496
111	0xbcc5238c	-0.024064802
112	0xbde030af	-0.10946786
113	0xbe091307	-0.13386165
114	0xbe1c0537	-0.15236364
115	0xbdfda586	-0.12385087
116	0xbe2fc125	-0.17163523
117	0xbdf5de9c	-0.1200535
118	0xbe0c1d8a	-0.13683143
119	0xbd8d4356	-0.06897609
120	0xbd9cc7da	-0.07655306
121	0xbc298098	-0.010345601
122	0xbbb9c3c7	-0.0056690904
123	0xbcaddbfd	-0.021223063
124	0xbe027778	-0.12740886
125	0xbdf08796	-0.11744611
126	0xbd17b448	-0.037037164
127	0xbd238abe	-0.039927237

weight f4 [12, 128]
0	0x3d36c683	0.04462291
1	0xbcc4bae2	-0.024014894
2	0x3d24dfcf	0.040252503
3	0xbcc2c44c	-0.023775242
4	0xbc912698	-0.017718598
5	0x3c9f3199	0.01943283
6	0x3c9c0c71	0.019048901
7	0x3b1409a4	0.0022588754
8	0xbb77582b	-0.0037741761
9	0xba359476	-0.00069267245
10	0xbcb51939	-0.022106754
11	0xb9e289e8	-0.00043208827
12	0x3cd9e1dc	0.026596956
13	0xbcb51df1	-0.022109004
14	0xbd12bd1a	-0.035824873
15	0xbc87b503	-0.016565805
16	0x3cab6672	0.020922873
17	0x3ce2dc3f	0.027692912
18	0x3b7a9b04	0.003823937
19	0x3a9a9937	0.0011794929
20	0xbd806331	-0.06268919
21	0xbc2ea610	-0.01065971
22	0xbcbc270d	-0.02296784
23	0x39102de7	0.0001375001
24	0xbd77ab30	-0.06046599
25	0x3c15d470	0.009144887
26	0xbbce399c	-0.0062934887
27	0x3d53ae6e	0.05168002
28	0x3cb15b96	0.021650117
29	0xbd6c5937	-0.05770227
30	0xba07b58d	-0.00051768945
31	0xbcb84bd3	-0.022497093
32	0x3b4f2d05	0.0031612527
33	0xbc453d07	-0.012038476
34	0xbdd5b7ff	-0.10435485
35	0x3cba15ea	0.022715528
36	0x3dc2adae	0.09505783
37	0x3d6216cf	0.055197533
38	0x3c1984e9	0.009370067
39	0x3cf30767	0.029666616
40	0x3d1b94cd	0.037983704
41	0x3ab381a1	0.0013695249
42	0xbc8dc0e6	-0.017303895
43	0xbc37c403	-0.011216166
44	0x3b9fdbab	0.0048784814
45	0x3bd6ee39	0.00655916
46	0x3cdc3c0e	0.026884105
47	0x3c541faa	0.012947002
48	0xbcc25918	-0.023724124
49	0xbce57ecb	-0.028014561
50	0xbce2ac52	-0.02767006
51	0x3c135608	0.008992679
52	0xbe1c50e3	-0.15265231
53	0x3b5919a1	0.0033126848
54	0x3c516ff0	0.012783036
55	0xbc19e40c	-0.0093927495
56	0x3c4df384	0.012570266
57	0x3847a548	4.7599227e-05
58	0x3b5c9b94	0.0033662068
59	0xbcdbebe1	-0.026845874
60	0xbb9f7525	-0.0048662596
61	0x3ca78465	0.020448873
62	0x3c5a9b66	0.013342714
63	0xbcffd4bd	-0.031229371
64	0xbcb6e5a2	-0.022326294
65	0xbc891eea	-0.016738374
66	0x3b137db0	0.0022505336
67	0xbc5d3ad2	-0.013502793
68	0x3c73190a	0.014837513
69	0x3c8b9155	0.017037073
70	0xbcb6d450	-0.022318035
71	0x3c935bc7	0.017988099
72	0xbaa978ce	-0.0012929679
73	0x3c8e4c2b	0.017370304
74	0x3d1def67	0.03855839
75	0xbcd7bddb	-0.026335647
76	0xbd1f649f	-0.03891432
77	0xbd8d21be	-0.068912014
78	0x3c97126e	0.018441405
79	0xbb547261	-0.0032416808
80	0x3cb7942d	0.022409523
81	0x3b6e1c63	0.0036332838
82	0xbcb66398	-0.022264287
83	0x3c37e1ba	0.011223251
84	0x3cbe6981	0.023243668
85	0x3d0dd00f	0.03462225
86	0xbbe26e50	-0.006910123
87	0xbd2b17a2	-0.041770585
88	0x3d186cd5	0.037213165
89	0xbc088916	-0.008333465
90	0xbbcb4c09	-0.0062041325
91	0xbd216215	-0.03940018
92	0x3a715f09	0.0009207582
93	0xbc6436a2	-0.013929041
94	0x3e4456ac	0.19173688
95	0x3a6a25a3	0.0008932
96	0x3c60e78b	0.013727079
97	0x3d2a0f3e	0.041518442
98	0xbc32a7cf	-0.0109042665
99	0x3d16c6c9	0.03681067
100	0x3bcd14da	0.006258589
101	0x3c07515f	0.0082591465
102	0xbc08cedd	-0.008350101
103	0x3cbb163b	0.022837749
104	0x3d328761	0.04358614
105	0xbc8ea4b8	-0.017412528
106	0x3ca97fdb	0.020690849
107	0xbc464338	-0.012100987
108	0xbc3f1871	-0.011663542
109	0xbbf4038c	-0.007446712
110	0xbd51f45a	-0.051258422
111	0xbcad6f85	-0.02117134
112	0xbbab84e3	-0.005234347
113	0xbcb6ca18	-0.022313163
114	0x3d84a66e	0.064770564
115	0xbc92e61f	-0.017931996
116	0xbb540ea1	-0.0032357352
117	0xbb59db05	-0.0033242118
118	0x3a4ed7d3	0.00078904367
119	0xbc490319	-0.012268805
120	0xbaa46c0f	-0.0012544411
121	0x3bbba68e	0.005726642
122	0xbc146237	-0.009056619
123	0xbc2f293a	-0.0106909815
124	0xb9ac2989	-0.00032837343
125	0xbd319289	-0.043352637
126	0xbc9c124b	-0.019051692
127	0xbb722401	-0.003694773
128	0xbc26165b	-0.010137166
129	0x3cb4ade9	0.022055583
130	0x3c8626eb	0.01637598
131	0xbb44b2a8	-0.0030013714
132	0xbdb25940	-0.08708429
133	0x3c89baab	0.016812643
134	0x3c30e6c0	0.010797203
135	0x3c5ee7d7	0.01360508
136	0xbddda2f4	-0.108220965
137	0x3dba3af4	0.09093276
138	0xbc483453	-0.012219506
139	0xbb56c751	-0.003277261
140	0x3c9e532b	0.019326767
141	0x3ccbe000	0.024887085
142	0xbc592169	-0.0132525945
143	0x3d86b394	0.065772206
144	0xbdad0747	-0.08448654
145	0xbd0ab191	-0.033860747
146	0x3dd33451	0.10312713
147	0xbac658d5	-0.0015132675
148	0xbd0b26fd	-0.03397273
149	0xbcbb0eeb	-0.022834262
150	0x3dc4d5e1	0.09611107
151	0xbd0c5f13	-0.034270357
152	0x3d80f5f1	0.062969096
153	0x3d1dbe3a	0.038511492
154	0x3c92d5e5	0.017924258
155	0x3d90aa04	0.07063678
156	0x3c5188de	0.012788979
157	0xbcd02778	-0.025409445
158	0xbd126692	-0.03574235
159	0xbc970c25	-0.018438408
160	0x3d5af7ed	0.053459097
161	0xbe0e7c4d	-0.13914604
162	0x3e0edfcf	0.13952564
163	0xbcbb923b	-0.022896877
164	0x3d678b52	0.05652935
165	0x3a9e2163	0.0012064393
166	0xbcd3e0cb	-0.025864026
167	0xbd394f7f	-0.04524183
168	0x3d3c4ace	0.045969777
169	0x3cd6cb1c	0.026219897
170	0xbd63f85f	-0.055656787
171	0x3bb1985d	0.0054197744
172	0x3d4c44aa	0.04987017
173	0x3bc06967	0.00587194
174	0xbc4a8d3c	-0.012362774
175	0xba9069e3	-0.0011017885
176	0xbcd787e2	-0.026309911
177	0xbb98670c	-0.004650956
178	0x3cc092b1	0.023507448
179	0xbd06fa76	-0.032953702
180	0xbe4e37ac	-0.20138425
181	0x3cc6f845	0.024288306
182	0x3d913bcd	0.07091484
183	0x3d1cdf06	0.03829863
184	0x3d333493	0.04375131
185	0xbd753dc3	-0.059873354
186	0x3d0b9475	0.034077127
187	0xbc74adb3	-0.014933991
188	0x3c855d9f	0.016279994
189	0xbd98d81f	-0.07463097
190	0x3cd1d8d7	0.025616093
191	0xbc2bc2ab	-0.010483424
192	0xbd8b9e80	-0.06817341
193	0xbccf0c65	-0.025274465
194	0x3bc43404	0.005987646
195	0x3bfa9f74	0.007648403
196	0xbd2cece4	-0.042218104
197	0xbd4ad04c	-0.049515054
198	0x3b34189a	0.0027480484
199	0xbcfb5248	-0.030678883
200	0x3cef6e8c	0.029227518
201	0x3dce9c34	0.10088387
202	0xbcf4d81b	-0.029888203
203	0x3ce1ad31	0.027548404
204	0x3d7ca3b9	0.061679576
205	0xbcc176d1	-0.023616226
206	0x3d67ebb0	0.056621253
207	0x3d1df775	0.03856607
208	0x3cc43d19	0.023954915
209	0xbd81493e	-0.06312798
210	0xbc323961	-0.010877938
211	0x3abc4d55	0.0014366308
212	0x3d46fb1a	0.048579313
213	0x3bc1e48f	0.005917139
214	0x3be9473e	0.0071190884
215	0x3c2d1474	0.010563958
216	0xbd2a6e9a	-0.041609384
217	0xbc1ae969	-0.009455063
218	0xbd4c6094	-0.04989679
219	0xbcada831	-0.021198364
220	0xbc36f226	-0.011166131
221	0x3cecabf0	0.02889058
222	0xbe573b2a	-0.21018663
223	0x3d28de92	0.041227885
224	0xbd50f69c	-0.051016435
225	0x3dc612f5	0.096715845
226	0x3c6c1585	0.0144094275
227	0x3d05cdbd	0.03266691
228	0xbc8417d5	-0.016124645
229	0xbd0d3937	-0.034478392
230	0x3cd43abb	0.025906911
231	0x3dcae142	0.09906246
232	0x3da87b6d	0.082266666
233	0x3db66bfb	0.089073144
234	0xbcc0673a	-0.023486722
235	0xbc0747c4	-0.008256856
236	0xbbf9dd65	-0.0076252692
237	0x3d1ff98a	0.03905634
238	0x3dc0094e	0.09376775
239	0x3c3e2d14	0.011607427
240	0x3c7ca221	0.015419514
241	0xbc24c891	-0.010057584
242	0x3d60633a	0.05478213
243	0xbd24b3ec	-0.04021065
244	0xbcafc12a	-0.021454412
245	0xbd55666e	-0.052099638
246	0xbca9e920	-0.020741045
247	0x3cf32228	0.029679373
248	0xbd34771b	-0.0440589
249	0x3c85b7f0	0.01632306
250	0xbc1334bb	-0.00898474
251	0xbd017b81	-0.031611923
252	0x3d388f17	0.045058336
253	0xbd43cfaa	-0.047805466
254	0x3d2ce1a6	0.042207383
255	0xbc811e5f	-0.015761552

bias f4 [12]
0	0x3b398a02	0.0028311019
1	0x3da6cf7b	0.081450425
2	0xbe94ebb0	-0.29086065
3	0xbe364e01	-0.17803194
4	0x3dea2f2b	0.11434778
5	0xbe62196b	-0.22080009
6	0x3c916348	0.017747536
7	0x3d656b95	0.0560108
8	0xbeb1b300	-0.3470688
9	0xbe14b26c	-0.14521188
10	0x3d8e663d	0.06953094
11	0xbe726af4	-0.23673612
